unity_project_assets/ML Models/v0.2.0/CarMovement-679991.onnx (onnx, 93529 bytes, 6 tensors)

network_body._body_endoder.seq_layers.0.weight f4 [128, 39]
000000 f8 11 32 3e 9b ee 37 bf a3 d2 bf 3e 43 2a 24 be
       0.17389667 -0.7184846 0.3746539 -0.16031747
000010 bc 19 8e 3c 6e 52 6a be ee 80 a1 be 45 91 a0 be
       0.017346255 -0.22883007 -0.31543678 -0.31360832
000020 d4 84 8f be e1 ca f3 bd e4 41 ff bd b0 b2 d5 3d
       -0.28031027 -0.119039305 -0.124637395 0.104344726
000030 d2 2a 71 bd de 45 14 3e 70 15 8a bc 8c 24 de 3d
       -0.058878727 0.14479777 -0.016855925 0.108468145
000040 9e 7a 9d be 37 94 2d 3d 0c bf e2 bd b7 50 71 3e
       -0.30757612 0.042377677 -0.110715955 0.23565947
000050 2b 25 79 3d ea 1d 03 3e a7 70 0b 3d 7b a9 93 3e
       0.06082646 0.1280438 0.03404298 0.2884024
000060 93 3d 5c bc c2 0c b0 bc c0 5a 00 be c7 7c 15 3e
       -0.013442415 -0.021490458 -0.12534618 0.1459838
000070 03 b8 96 3d e2 c6 a3 3e a0 97 0d be d1 4c 6d be
       0.07359316 0.31987673 -0.13827372 -0.23173834
000080 8a 75 f4 bd 0a 59 d8 3e d0 71 4c 3d 54 5f 9b 3e
       -0.11936481 0.4225543 0.049913228 0.30346167
000090 c5 21 13 bd e3 f3 be 3d e4 98 86 3e 1a 9c 19 bd
       -0.035920877 0.093238614 0.2628852 -0.037502386
0000a0 dd 64 e6 3d c9 42 4f bd e2 e5 e4 bd 70 da d6 3d
       0.11249707 -0.0506008 -0.11176659 0.104908824
0000b0 e6 e3 c4 bd 79 03 42 3d ec e1 18 be af 69 e0 3c
       -0.09613781 0.047366593 -0.14929932 0.027394144
0000c0 cb 80 de 3d 35 42 cd 3e 7d 71 d7 be 0f cd 51 be
       0.10864409 0.40089574 -0.42078772 -0.2048838
0000d0 c2 32 07 be 92 1d 92 3e ca ca 3b 3b 5d f8 91 be
       -0.13202956 0.28538185 0.0028654807 -0.285098
0000e0 e7 13 91 be 2f 8f 56 3d 31 b6 bd be 3f 1a 47 bc
       -0.28335497 0.052382644 -0.37053064 -0.012152254
0000f0 c6 07 b2 3e bb 98 02 be 90 eb 02 3e 58 37 b4 bd
       0.34771556 -0.12753575 0.12785172 -0.087996185
000100 90 79 43 be f5 5e 1d be 06 3a 5a be 98 dc 05 3e
       -0.19089341 -0.15368254 -0.21311197 0.13072431
000110 c8 de 86 3e 29 3b 09 3d 2d 0b 1d 3e c6 a8 08 3d
       0.26341844 0.033503685 0.15336294 0.03336408
000120 a2 2e 06 be f1 d3 8d bd 58 62 e5 3c de 92 2c 3e
       -0.13103727 -0.0692519 0.028000996 0.168529
000130 47 00 97 3e f3 40 c0 bd bf 5a 41 bb f7 37 51 bd
       0.294924 -0.09387388 -0.0029503552 -0.051078763
000140 3a fe af 3c 0c 96 b3 bd 37 c0 87 bd 41 cd 1a 3e
       0.02148353 -0.087688535 -0.06628459 0.1511736
000150 a2 11 f7 bc 10 10 96 bc 64 d0 fa 3d 91 01 ca 3c
       -0.030159775 -0.018318206 0.122467786 0.02465895
000160 d2 5a e3 3d cf e3 77 be 61 2e 99 be 4e 3f 67 be
       0.11101307 -0.24207996 -0.29918197 -0.22582743
000170 09 f5 b5 3e 38 6d 37 3e 9b 7a 91 be 75 45 02 be
       0.3553851 0.17912757 -0.28413853 -0.12721808
000180 0e 46 e0 ba 9d 52 24 bd 7d 6a 05 3e 72 f0 3e be
       -0.0017110722 -0.04011785 0.13028903 -0.1864641
000190 2a 19 bc be 19 d3 a6 bd f2 df 76 be 64 bb d2 be
       -0.3673795 -0.081457324 -0.24108866 -0.41158593
0001a0 86 8f 38 be 67 d1 a9 3e 75 cf 2c 3d f0 f2 64 be
       -0.180235 0.33167574 0.042190034 -0.22358298
0001b0 be 76 a1 3c 29 68 e7 3d 4d c0 6c be 8e c2 2b 3d
       0.019709941 0.11299164 -0.23120232 0.04193359
0001c0 fc 44 07 be 34 21 2c be 86 45 aa be d5 1e f6 bd
       -0.13209909 -0.16809541 -0.33256167 -0.120175995
0001d0 d2 ec 0b 3d 71 a2 6c 3d 1f b4 39 bd 8e 46 d1 3c
       0.034161396 0.057772104 -0.045337792 0.025546338
0001e0 48 ed 84 be 26 4c 66 be c0 f2 94 bd c2 3e 83 3d
       -0.2596228 -0.22489986 -0.072728634 0.064084545
0001f0 69 36 10 bb 4e d8 d3 3c 15 a9 3f bd cb a6 3f be
       -0.0022005087 0.025859978 -0.04679211 -0.1871597
000200 3a fd 5c 3d c9 0e af 3d 5d 35 2b 3e 17 46 2c 3e
       0.053952433 0.08547742 0.16719575 0.16823612
000210 6a 4e 8f 3e 4e eb 3d 3c 96 5a 16 3e 34 49 98 3e
       0.27989513 0.011591746 0.14682993 0.2974335
000220 80 ad a4 3e 96 4f fa bd 51 f1 27 be 30 ff 68 bd
       0.3216362 -0.12222211 -0.16400649 -0.05688399
000230 ce 95 9b be 8b ff 89 bb c9 0c 45 3d a5 95 f6 bd
       -0.3038773 -0.0042113713 0.048107896 -0.12040261
000240 95 13 65 be e3 4a 6d 3d 08 00 ad bc 3c ea 49 3e
       -0.22370751 0.057932746 -0.021118179 0.1971826
000250 8b 40 23 bd 0a 71 95 3e b9 1d 66 3e b9 d9 7c be
       -0.039856475 0.29187804 0.22472276 -0.2469243
000260 82 14 34 bd 64 20 3b be 6d 31 02 be 38 1e 87 3d
       -0.04396487 -0.18274075 -0.12714167 0.06597561
000270 34 b8 d5 bb 33 80 ac bd dd 43 9c be 59 70 86 bd
       -0.006522203 -0.084228896 -0.30520526 -0.06564397
000280 84 72 3b 3c ba 35 a9 be 92 10 12 3e 85 cb 0e 3e
       0.011440877 -0.33048803 0.14264134 0.13944824
000290 1b 2b 5f 3c 18 a8 04 bb 09 9d 01 3e 6c d3 b3 3b
       0.013621117 -0.0020241793 0.1265756 0.00548785
0002a0 f9 ee 58 3d 01 53 1e bd a8 ce 5f be e1 c9 a1 be
       0.052962277 -0.038653377 -0.21856177 -0.31599334
0002b0 1d f6 51 3e ca f2 c4 3e 67 cc 56 3e fb 06 3c bc
       0.20504041 0.38466483 0.20976411 -0.011476274
0002c0 80 6f ce 3e 0a 69 0c 3e 7c 87 a8 bd c3 f7 9f bd
       0.40319443 0.13711944 -0.082289666 -0.07810929
0002d0 54 f8 4e be 12 ae 8f be ec f7 88 bd 21 36 20 be
       -0.20211917 -0.28062493 -0.06687912 -0.15645649
0002e0 3e 4b 0c bb d4 ec 6c be 51 68 be 3d 6e 21 b8 bc
       -0.0021407153 -0.23137218 0.092972405 -0.022476878
0002f0 a8 a3 f0 bc f1 6f 3a 3e 33 c1 53 3d e0 43 b6 bd
       -0.029374912 0.18206765 0.05169792 -0.08899665
000300 a3 11 96 be 19 0c 54 3e e5 ed b2 bc 68 86 a3 be
       -0.2931033 0.2070774 -0.021841953 -0.3193848
000310 6a 06 c7 3d 62 bf db bd 61 4d 02 be 22 45 92 bd
       0.0971802 -0.10729863 -0.1272483 -0.07142092
000320 52 2a f3 bd b1 56 44 3e b8 1e fb bc 49 83 9b 3d
       -0.11873306 0.19173695 -0.030654296 0.075934
000330 07 d6 d3 bd e5 89 a1 3c fd 31 e7 3d 58 90 2a 3d
       -0.10343557 0.019719074 0.112888314 0.041641563
000340 b5 c1 02 3e 08 6a d8 bd c9 9c ab 3c ae b6 ab 3d
       0.12769206 -0.10567099 0.020948784 0.08384453
000350 b9 79 7c 3e 3a 35 80 3c a5 ab f9 bd fb d8 b1 bd
       0.24655809 0.01565038 -0.12190942 -0.08683964
000360 ea 3e dd 3d cd 61 a3 3c 15 c9 71 3e 42 1c 18 3e
       0.108030155 0.019944096 0.23611863 0.1485453
000370 16 b4 c5 bd 30 d8 6d be 47 80 d5 bd d1 41 6a 3e
       -0.09653489 -0.23227 -0.104248576 0.2287667
000380 9a 48 80 be a8 a3 c6 bb 4c 61 8f bd 60 e6 44 be
       -0.2505539 -0.00606199 -0.0700098 -0.19228506
000390 84 9f 08 be c2 25 26 3b 1b f9 2c 3e a3 ea d0 3d
       -0.133421 0.0025352095 0.16891901 0.102010034
0003a0 b1 4d 98 bc fb 7c ed 3c ef bf 95 3e aa 93 1b 3e
       -0.018591734 0.02899026 0.29247996 0.15193048
0003b0 f9 75 df 3d 03 51 52 be 95 68 a5 3d b6 4a 44 be
       0.109111734 -0.20538716 0.08076588 -0.19169125
0003c0 1e 13 cd bd 3f 29 2a bc 68 a7 82 3d 05 c8 37 3e
       -0.10013412 -0.01038581 0.063795865 0.17947395
0003d0 3d e9 d9 3d 2a a2 95 3e d0 8d a4 bd b6 21 4a 3e
       0.1064019 0.29225284 -0.08034861 0.19739422
0003e0 32 5b 97 3e d3 81 91 3a b2 5b e4 bd f3 9c 61 3e
       0.29561764 0.0011101313 -0.11150302 0.22032528
0003f0 ac a1 a1 bd 13 5d 0c 3e 2b 10 e4 bd 91 49 59 3b
       -0.078921646 0.1370738 -0.11135896 0.0033155421

network_body._body_endoder.seq_layers.0.bias f4 [128]
000000 d9 4e 14 3d 40 c4 01 3c a6 49 8e ba 9b 4c d6 3b
       0.036208007 0.007920325 -0.0010855689 0.006539894
000010 0e 3c 9f 3a 8f 76 1b bc ae 56 b5 3c 47 a9 ea 3b
       0.0012148635 -0.009488716 0.022136059 0.0071612927
000020 09 0a 0b 3d 43 e3 02 3d 1f 39 72 3c 0e d1 33 bd
       0.033945117 0.031955015 0.014784127 -0.043900542
000030 df 90 8d 3c 95 06 64 3a a4 34 c2 3c 0b e5 fc b9
       0.017280994 0.00086984906 0.023706742 -0.00048235836
000040 3b 1e 63 3c 17 d9 17 3d 09 32 15 3c 3e b6 63 3c
       0.013862188 0.037072267 0.009106168 0.01389843
000050 d0 42 01 3d 8b a0 a1 3b ed 32 3d 3d 9e 6a 23 bc
       0.031557858 0.0049324683 0.046191145 -0.00997415
000060 9b 10 7d 3b 46 d1 5f bc 4d 79 eb 3c 40 bb 97 bc
       0.0038614634 -0.0136607345 0.028744364 -0.018521905
000070 30 7e 12 3c c0 84 d5 3c eb 68 15 bd d4 30 9b 3c
       0.008941218 0.026064277 -0.03647701 0.018944182
000080 13 d5 0b 3d e1 95 39 3d d2 f9 bd 3b de 32 98 3c
       0.03413875 0.04530895 0.005797603 0.018578943
000090 61 bd 36 3c 27 4c d4 3c 09 9d cf 39 45 d2 64 3c
       0.01115355 0.025915219 0.00039599117 0.013966148
0000a0 86 5c 80 3d 02 4a b1 bb cb bc 78 3d 44 5e 25 3c
       0.062676474 -0.0054104337 0.060726922 0.010093275
0000b0 20 74 1b 3b 20 c8 db bc d3 d6 f1 3c 78 0b d3 3c
       0.002372034 -0.026828825 0.029521381 0.025762305
0000c0 17 b1 83 bc cf ea 5e 3b aa c3 6e bd d9 67 37 bc
       -0.016075654 0.0034014469 -0.05829207 -0.011194193
0000d0 a8 12 cd 3c d7 5d 88 3b 8c e6 68 3c e4 e1 1e 3d
       0.02503331 0.004161577 0.014215123 0.038789645
0000e0 21 27 bc 3c f6 6e 43 bc 9d 43 c3 3c 35 8c 8a 3c
       0.022967877 -0.011928311 0.023835951 0.016912559
0000f0 be b1 05 3d 3b c4 fd bc 77 b9 4b 3d 8d cf ef 3c
       0.03264021 -0.030977359 0.04973742 0.029273773
000100 b3 cc 16 3c 6b a6 de bb c2 04 90 3c e0 b1 64 bc
       0.009204078 -0.006794741 0.017580394 -0.013958424
000110 03 b6 20 bc de 6c 3b 3b cf e0 fb b9 e2 99 52 3c
       -0.00980902 0.0028598825 -0.00048041946 0.012854071
000120 d5 9c ac bb 7e ea b8 3b e5 a2 08 bc 0f ea 3a 3d
       -0.0052677193 0.005643188 -0.008339618 0.045633372
000130 85 c1 61 39 ed e3 2f 3c 3a f7 6f 3c ef 48 44 3c
       0.00021529764 0.010735494 0.014646346 0.011980279
000140 70 2c e9 bb 4b 4b 94 3c 2a 04 82 bc 12 b5 14 3d
       -0.007115893 0.018102309 -0.015871126 0.036305495
000150 f0 3b 86 3c 68 e5 e7 3c ff c9 ec 3b 93 6d 44 3d
       0.016386002 0.028307632 0.0072262282 0.04795606
000160 35 18 2b 3d a6 d1 d4 bc df 03 a8 3c 67 6b a2 3c
       0.041771132 -0.025978874 0.020509658 0.019826604
000170 f3 b4 b9 3c 76 e7 d4 ba 9b d7 9b 3c 7b 07 0d 3d
       0.022669291 -0.0016243297 0.019023707 0.034430962
000180 9d d2 cf bb 70 c4 9c 3c ee 6b f8 3c 3f 65 e1 3c
       -0.0063422457 0.019136637 0.030324902 0.027514098
000190 d1 87 29 3d fe 8b f3 3b 73 83 6c 3c 86 d3 0d 3d
       0.04138929 0.00743246 0.014435637 0.034625553
0001a0 f0 d5 c6 3c a6 ab 84 bc d9 45 3f 3c b8 2c 05 3c
       0.024271935 -0.01619513 0.011674368 0.008128338
0001b0 ca 16 1f 3d 1b 80 e6 3b f5 e3 00 3d f3 39 45 bc
       0.038840093 0.0070343143 0.031467397 -0.012037742
0001c0 ed 90 65 bc 1c ff 2a 3d d6 8e 09 bb d3 89 aa bc
       -0.014011604 0.041747198 -0.0020989678 -0.020817673
0001d0 1d 0f 9a 39 11 26 3e 3d ff 8d 8c 3c 64 2f 16 3d
       0.0002938443 0.04642302 0.017157553 0.03666629
0001e0 de e7 0f bc a7 6d 3f 3a d1 9b 30 3c 64 5f 9b 3c
       -0.008783309 0.0007302411 0.010779337 0.018966384
0001f0 fd 64 ec 3c 99 bc 94 3c 6a 6e b3 3c 1c 48 11 3d
       0.028856749 0.018156337 0.021903235 0.03546916

network_body._body_endoder.seq_layers.2.weight f4 [128, 128]
000000 49 68 a3 3d ea 26 09 ba d5 fe 20 bd 2d 8b 87 3c
       0.07978875 -0.0005231934 -0.039305527 0.016545856
000010 15 68 e2 bc ec ed f4 bd ba 4c 34 3c 99 d9 e8 3d
       -0.02763752 -0.119594425 0.011004621 0.113696285
000020 84 92 bd 3b 73 e4 1f 3d cd 38 14 bc 93 10 f2 3c
       0.0057852883 0.039036226 -0.0090467455 0.029548919
000030 89 86 01 bd 95 1c fc bc 61 36 71 be 7b 87 08 be
       -0.031622443 -0.030775348 -0.235559 -0.13332932
000040 23 d4 39 3d f2 be 91 3d 6e 55 81 be cb b0 18 be
       0.045368325 0.07116498 -0.2526049 -0.14911191
000050 d4 bf 10 3e de b4 f0 bc 67 46 96 3d d9 c2 c5 3c
       0.14135677 -0.02938312 0.07337647 0.024140762
000060 4a 0b 59 bd 73 2f 32 3d 24 25 1b 3b 9e 02 f6 3d
       -0.05298928 0.043502282 0.002367326 0.12012218
000070 ba 3f 55 bd 8f 28 ec 3d af af 82 3d 86 c8 da bd
       -0.052062728 0.115311734 0.06381165 -0.10682778
000080 91 57 19 3d cb 6d a1 3c 4e b0 d7 3d dc bc 52 bc
       0.037437025 0.019705674 0.10531674 -0.01286241
000090 e0 32 e2 3d b7 12 2d bd 23 f3 52 bc 36 84 25 3e
       0.1104486 -0.042254176 -0.012875351 0.16163716
0000a0 9c 9b 2f 3e 84 d1 e8 bd 81 78 bc 3c dd 06 10 3e
       0.17149204 -0.11368087 0.02300668 0.14065118
0000b0 d1 ec 89 bd 35 ce 9c bc 81 9f 5f bd fd 90 78 3d
       -0.06734622 -0.019141296 -0.054595474 0.060685147
0000c0 70 8a b9 bd bf 7f bf bd be 05 69 3d a6 1b 3a 3d
       -0.09059608 -0.093505375 0.05689024 0.045436524
0000d0 f9 61 dc bb 06 6e e5 3b 62 d8 a3 bd 43 02 90 bd
       -0.0067255464 0.007001641 -0.08000256 -0.070316814
0000e0 0e f6 37 3e 3a 35 a1 bd 28 4e b1 3d 53 aa a5 bd
       0.17964956 -0.0787148 0.08657485 -0.080891274
0000f0 90 f3 62 be 40 6b f3 3b 4b 82 88 bd 23 16 d4 3d
       -0.22163224 0.0074285567 -0.066654764 0.10355785
000100 c7 37 4a bd be 56 ad bc 15 f3 13 3e cb 7d 5a bd
       -0.0493696 -0.021159526 0.14448197 -0.05334262
000110 81 be b9 bd 36 50 a7 bd 9c 4d d0 bc 60 fe 8b 3d
       -0.09069539 -0.08169596 -0.025427632 0.068356276
000120 37 1d 58 bc 30 1d a7 3d d8 7a 92 bb 64 ba 1c 3e
       -0.013190559 0.08159864 -0.0044702105 0.15305477
000130 48 76 fd bd 79 35 d4 3d f7 f6 8a bc e6 fe 9b bd
       -0.12376076 0.103617616 -0.016963465 -0.076169774
000140 72 61 83 3d 4e 41 de 39 0f 58 a4 bc a9 8d b5 bd
       0.064150706 0.00042391795 -0.02006152 -0.0886491
000150 8a 70 8b bd 16 57 21 be 66 79 c7 bb c5 68 c8 3d
       -0.068085745 -0.15755877 -0.00608747 0.09785608
000160 59 5d d2 3d 60 39 d2 39 8a 1c c7 bc a9 96 63 3d
       0.10271711 0.0004009707 -0.0243056 0.055563603
000170 74 a5 35 be 8e c7 b5 3d af b9 b9 bd 9e ed f9 3c
       -0.17738897 0.08875953 -0.090686195 0.030508813
000180 51 bb a6 bd 42 68 94 3d ae b4 80 be 5d 6f 7f 3a
       -0.081411965 0.07246448 -0.25137848 0.00097440724
000190 3e 7b 18 3e 56 4a c7 3c e9 99 03 bd d1 f2 3e bd
       0.14890763 0.024327438 -0.032129202 -0.046618287
0001a0 3c 3b ab 3d a5 a7 ae bd b3 73 7d 3d 6a dc 7f 3d
       0.083609074 -0.085280694 0.061877917 0.062466063
0001b0 7b 9d 60 bd a1 e5 6f bd 53 6b 0d bd e3 3e a4 3c
       -0.054837685 -0.0585686 -0.03452618 0.020049518
0001c0 63 fb b4 3c 19 5e 08 3e 02 95 4e be 9c 26 62 3d
       0.022092527 0.13317145 -0.2017403 0.055212602
0001d0 9d 7b c8 bc c9 2f 57 3b 97 79 06 3d 2c dc 81 3e
       -0.024473006 0.0032834879 0.0328308 0.2536329
0001e0 0c 53 2c be b3 f1 1a 3d 9c 00 0f bd 09 42 a9 bd
       -0.16828555 0.03782816 -0.03491269 -0.08264548
0001f0 4f 51 0a 3d 54 c6 a2 bb 2c 76 92 3d 88 c0 77 bc
       0.03376895 -0.00496749 0.07151446 -0.015121587
000200 a2 25 cc bd 40 2b 89 bd 36 ac 2b 3e ff 09 8e bd
       -0.099681154 -0.066977024 0.16764912 -0.069355
000210 61 9f ea 3d 0d 03 d8 3c 88 c9 1f 3c 70 60 85 bd
       0.1145618 0.026368642 0.009752639 -0.065125346
000220 64 88 01 3e 5e f6 1a be da 7a 84 bd 03 f4 ef 3a
       0.12649685 -0.15133044 -0.064687446 0.0018306974
000230 0b 19 b4 3d 1b 64 71 3d 50 20 0c bd 30 ee 86 bd
       0.08793839 0.05893336 -0.034210503 -0.065883994
000240 4f b5 8d 3d 65 1b 73 3d bd d0 8f 3c aa 8d 2a 3e
       0.069193475 0.059352297 0.017555589 0.16655603
000250 b2 49 d0 bb 16 cd 5d 3d f1 b3 da 3d 7a db a8 bd
       -0.0063564414 0.054150663 0.10678852 -0.08244987
000260 4e 7d 1b bd c9 52 22 bc 35 1b 03 3c 2d 66 01 3e
       -0.037961297 -0.009907433 0.008002092 0.12636633
000270 28 93 15 3d 61 f6 44 bd 73 97 3b bc fb 46 b0 bc
       0.036517292 -0.048086528 -0.0114496825 -0.021518221
000280 40 b5 09 3e d8 ac 24 3e be a1 15 3d 5a 4d 89 3c
       0.13448048 0.1608156 0.036531202 0.016760517
000290 8b 14 45 bd b1 6f 77 3b 38 b1 a5 3d e5 3b 88 bd
       -0.048115294 0.0037755782 0.080904424 -0.06652049
0002a0 d3 b2 0f 3e 2f 5f 3b 3d 0b e8 a4 3c d1 0e 1f bd
       0.1403306 0.04574507 0.020130178 -0.03883249
0002b0 5c d3 21 be 0e 90 e3 3c e7 0e e3 bd 25 a2 bd bc
       -0.15803283 0.027778652 -0.11086827 -0.023148606
0002c0 81 c1 9e bc c7 be 21 be 34 a8 fd 3d ad 90 1f 3d
       -0.01937938 -0.15795432 0.12385598 0.038956333
0002d0 a1 1f 82 3d 93 29 cb bc 91 61 84 bd 4f 1a dd 3c
       0.06353689 -0.024800098 -0.06463922 0.026990084
0002e0 7d c3 52 bd 55 be 8b 3d 39 2e 1c 3e e5 8b 8c bd
       -0.051455963 0.06823412 0.15252008 -0.0686262
0002f0 f6 19 f2 bc 19 15 af bd 17 a7 ab bd 6f 93 d4 3c
       -0.029553395 -0.08548946 -0.08381479 0.025949208
000300 c3 fa 0d 3e cf 95 51 bd 24 e9 f5 bd 2d 1c 12 bd
       0.13865189 -0.05116826 -0.12007359 -0.0356714
000310 21 f9 e2 3d 65 bc 0c bd 21 6e 38 3e 39 12 be 3d
       0.11082674 -0.034359355 0.18010761 0.092808194
000320 88 68 09 3d 3e de 5e 3d 09 4d c2 3c 67 78 26 bd
       0.033546954 0.054411165 0.023718374 -0.04064217
000330 a2 b1 eb 3b 37 26 d4 3d f4 51 48 3c 90 fc 70 bc
       0.0071928063 0.103588514 0.01222657 -0.014708653
000340 2d f1 9f bd af 81 6d 3c be c4 18 3e b9 b0 ec bc
       -0.078096725 0.014496251 0.14918801 -0.028892862
000350 15 56 bb 3d 12 8c fe bc 12 ea 9e 3c a4 4c 1f 3d
       0.09147278 -0.03107265 0.019398723 0.03889145
000360 59 b6 c3 3d c6 5a d8 3d a0 95 42 bd fd 99 a5 3c
       0.095562644 0.10564189 -0.047505975 0.020215029
000370 09 13 f6 3d 1e 3b 29 ba 79 20 a4 bd a9 79 c1 3c
       0.120153494 -0.00064556475 -0.08014006 0.023617582
000380 c1 60 28 bd 90 9f ce 3d 2d be e6 3b d0 2a ae 38
       -0.041107897 0.10089028 0.0070417137 8.304941e-05
000390 aa d4 70 3b ca ee 5e bd 0f a5 20 be 79 c6 76 3d
       0.0036747851 -0.054426946 -0.15687965 0.060247872
0003a0 f4 d8 a6 3c e5 34 23 be f6 a3 38 3e e2 10 d3 bd
       0.020367123 -0.15938146 0.18031296 -0.103059545
0003b0 f0 80 23 3e 57 b1 84 3d 1a f7 a4 3d 7d 1d 1f be
       0.15967155 0.064791374 0.080549434 -0.15538593
0003c0 51 d4 35 3b 0e 64 47 3d 91 0a f3 bd 15 78 2d 3b
       0.0027744959 0.048679404 -0.1186725 0.002646928
0003d0 ac 3d 11 be 0d 06 f6 bc 14 5f 8b 3c 10 ea 64 3d
       -0.14183682 -0.030032182 0.01701311 0.055887282
0003e0 3a 66 07 3e 14 64 14 bd 57 46 c2 3d 24 a8 c0 3d
       0.1322259 -0.036228254 0.094860725 0.0940707
0003f0 8a 80 25 3d 0d 99 16 3e 90 58 a1 3d 8c 58 3c 3c
       0.040405788 0.14706822 0.0787822 0.011495721

network_body._body_endoder.seq_layers.2.bias f4 [128]
000000 28 8f e1 3c 5c 7a 7d 3c 36 27 e3 3a 50 0b ab 3c
       0.027534083 0.015471067 0.0017330411 0.020879418
000010 ad 36 bf 3c f0 f3 af 3c e0 10 a9 3b 60 12 34 bb
       0.023341501 0.021478623 0.0051594824 -0.0027476773
000020 68 d4 06 3c 7a 9d 87 3c 38 f2 ab 3b 7a c2 82 3c
       0.0082293525 0.016554583 0.0052473806 0.015961874
000030 2b 71 bf bc e8 de ad b9 92 33 c0 3c 90 cd c3 3c
       -0.023369392 -0.0003316321 0.02346209 0.02390173
000040 45 bc 60 3b a8 c3 2a 3c 9b 6f 8e ba 97 1b 6d 3c
       0.0034291905 0.010422625 -0.0010867001 0.01447191
000050 6c 95 14 bb 12 1a be 3c a7 24 9b bb 7a bb 0f bc
       -0.002267207 0.02320579 -0.004734594 -0.008772725
000060 80 03 43 3d 68 e8 4f ba fc 23 cc 3c ad 8f 87 3c
       0.04761076 -0.00079310546 0.024919502 0.016548002
000070 c9 92 cc 3c c0 4a 05 bc 9e 30 d5 3c 81 ea 04 3d
       0.024972336 -0.008135498 0.026024159 0.032450203
000080 0c 87 36 3d 25 a2 28 3c 33 65 f0 bb 20 9d 0d 3d
       0.044562384 0.0102925645 -0.0073362826 0.034573674
000090 7f bd 09 bc 01 18 a1 3c 8a e4 fe 3b 34 65 cb 3c
       -0.008406996 0.019664766 0.007778709 0.02482853
0000a0 ea d7 23 3d c0 00 3b 3c a5 95 ac 3c 8b 85 02 bb
       0.040000834 0.011413753 0.02106745 -0.0019916024
0000b0 b5 2b a3 bb af 28 20 39 7e 0d a6 bb 1e b7 aa 3c
       -0.0049795755 0.00015273945 -0.0050675264 0.02083927
0000c0 97 a9 36 bc 33 88 07 3b 32 88 fc 3b 1f 8f a7 3b
       -0.011148832 0.0020680546 0.0077066654 0.005113497
0000d0 b0 85 dc 3c ea 45 11 bc 1c b3 5f bc 81 06 dc 3c
       0.026919216 -0.0088667665 -0.013653543 0.02685857
0000e0 15 5b f8 3c 9d 10 02 3c dd c6 de ba 8f 3b 11 3c
       0.030316869 0.007938531 -0.0016996522 0.0088642975
0000f0 fb d8 22 bc 20 a5 b7 3c 23 b0 55 bc 81 43 b0 3c
       -0.0099394275 0.022417605 -0.013042483 0.021516563
000100 e5 8e a4 3c 59 66 c1 bc 8c 96 80 3c 80 10 88 3a
       0.020087669 -0.023608373 0.015696786 0.0010380894
000110 72 e9 b9 3c 14 66 50 bb b3 92 fa 3b c1 ba 1a bb
       0.022694323 -0.0031799125 0.0076468824 -0.002360985
000120 cc b4 dc 3c 7c 1a 13 bc 6d 48 7e 38 ef 45 63 bc
       0.02694168 -0.008978482 6.062577e-05 -0.013871654
000130 5b 30 5b bb 3a 98 22 bc 9b dd 7c 3b 4c fd 84 b9
       -0.003344557 -0.009923989 0.0038584236 -0.00025365723
000140 f3 00 82 3c c1 6d 0d 3b 79 ec da 3a 9c 1b c3 3c
       0.015869593 0.002158031 0.0016702554 0.023816876
000150 25 aa ba 3c e7 c3 13 3c 81 b1 85 3c cb c8 ee 3c
       0.02278621 0.009018875 0.016319992 0.02914848
000160 d9 68 33 3c 8a 6b b0 3c aa 3a be 3c 8a 75 07 3d
       0.010950291 0.021535654 0.023221333 0.03307108
000170 1b 62 86 bb 40 f6 85 3a a9 7d 7e bb 7d 24 84 3c
       -0.0041010506 0.0010220483 -0.0038832224 0.01613068
000180 ce dc 0f 3c 49 3c 01 3c d8 92 49 3d 73 c1 8c bb
       0.008780671 0.007887908 0.049212307 -0.004295522
000190 d6 00 e8 3c fb e5 59 bc aa 9f ea 3c 94 85 ca 3c
       0.028320711 -0.0132994605 0.028640587 0.024721898
0001a0 be 04 31 3d 00 04 0d 3d d5 3c 0b 3d de d4 cb 3b
       0.043217413 0.034427643 0.03399356 0.006220444
0001b0 51 8d ee 3b aa e8 c5 3a a8 e7 d6 3c 39 2a 6f 3c
       0.00728003 0.0015099247 0.02623351 0.014597469
0001c0 12 8c 7b 3c 96 93 ab 3b 6d e8 33 3c 2c 3d c8 3c
       0.01535322 0.0052360995 0.010980708 0.024443232
0001d0 b6 1f a3 3c e7 d0 2a 3c fb da 67 3c 41 a9 71 3c
       0.019912582 0.010425783 0.01415133 0.014749826
0001e0 a5 1a 90 3b eb 40 a1 bc dd 89 df 3c 4b 37 60 39
       0.0043977075 -0.019684276 0.027287418 0.00021382903
0001f0 99 c1 e4 3c 98 38 0e 3d 6c 47 9b bc 5b ec d4 3c
       0.027924346 0.03472194 -0.018954955 0.02599161

action_model._discrete_distribution.branches.0.weight f4 [4, 128]
000000 e3 b0 21 3d 1d 43 41 3c 30 a1 21 3c b8 74 a8 3d
       0.039475333 0.011795786 0.00986509 0.08225387
000010 ff 75 e2 3c 3d c1 6e 3c 32 81 26 bc 2b 2b d9 bc
       0.027644156 0.014572439 -0.0101626385 -0.026509842
000020 f2 46 24 bd 46 a8 29 3c 1c b0 43 bc b5 13 d9 ba
       -0.04010672 0.010355061 -0.011943843 -0.0016561659
000030 fc 38 66 bc 02 ec 4e bd cb 29 d9 3c 06 b1 1d bd
       -0.014051672 -0.050518043 0.026509186 -0.0384989
000040 b8 d6 c7 bc 20 85 d4 bc 0e 23 6a bd 67 ad f3 bc
       -0.024394378 -0.025942385 -0.057162337 -0.02974577
000050 fb ed 62 bd fd ba ca 3c 6e 64 32 bd 6c 0c 94 bc
       -0.055402737 0.024747366 -0.04355281 -0.01807233
000060 ea 6f ec 3c c0 7f c4 bc ab 6c c3 3c fc f4 80 bd
       0.028861959 -0.023986697 0.023855528 -0.06296727
000070 1a dd 1e 3d f9 a6 21 bd f0 9d 11 bd a1 c6 cf 3c
       0.038785078 -0.03946588 -0.03555101 0.025363268
000080 24 2d 40 3d 58 50 02 3c 0a 81 25 bd 38 c8 f4 3c
       0.04691805 0.007953726 -0.040406264 0.029880628
000090 99 84 de bc f6 b0 bb bc 10 d8 26 bd 37 f8 ac 3c
       -0.027162837 -0.02291153 -0.040733397 0.021114452
0000a0 ea 7a 31 3d 83 6e 55 3c 9d 43 a6 3c 2f e3 75 bc
       0.04333011 0.013026836 0.020295912 -0.015007778
0000b0 ef 4e 1b bd e0 c5 5a bc a0 cb 7b bc 6a ed 13 bd
       -0.037917074 -0.013352841 -0.015368372 -0.036115088
0000c0 dc 55 bb bc 42 37 56 bd 5e a0 90 3c c0 8d 20 bd
       -0.02286809 -0.05229879 0.017654594 -0.039197683
0000d0 aa 9a c3 3c d3 ac dd bc e1 ea cf bc 3c ea 03 3d
       0.02387746 -0.027059948 -0.025380554 0.032205805
0000e0 91 0e 84 3c 25 9e c6 3b f8 8f e1 bc 79 17 ac 3c
       0.016120227 0.0060613328 -0.02753447 0.021007286
0000f0 f6 f6 0d bd 38 c9 d4 3c 30 fc aa bc 8d 38 26 3d
       -0.03465935 0.025974855 -0.020872205 0.040581275
000100 c1 41 e2 bc b8 15 8d 3a 19 0c 08 3c 8a dd f3 bc
       -0.027619245 0.0010763919 0.008303666 -0.029768724
000110 7f 69 fb 3c 19 3f e5 bc 88 91 b0 bc bf 4f f3 bc
       0.030689953 -0.027984189 -0.02155377 -0.029701112
000120 40 9b a7 3c d1 c5 fc bc 51 45 2c bc 50 5f 08 bd
       0.020459771 -0.030856045 -0.010514573 -0.033294022
000130 d6 dc 9e 3a 74 02 38 bd 81 8b 0b 3a 8e b8 32 bd
       0.0012120258 -0.044924214 0.0005323217 -0.043633036
000140 4d 6f 33 3c ab a1 61 bc de 8b 56 bb fe 8c 97 3c
       0.010951829 -0.013771455 -0.0032737176 0.018499848
000150 55 5d 81 3c 52 66 03 bd 41 bf ff bc 81 e0 c7 3b
       0.015791574 -0.032080002 -0.031219127 0.006099761
000160 bd 84 87 bc d4 e1 2d 3d 5b b9 ff 3b 8c 57 ce 3c
       -0.016542787 0.042451695 0.0078040785 0.02518823
000170 a1 73 fa bc 02 cb bd bc 72 ef 33 bd 4b a0 b5 3b
       -0.030572714 -0.02316809 -0.043929525 0.00554279
000180 0b 6f 1d 3c c5 85 b5 bc 89 16 1e 3d f9 43 4c bc
       0.009608994 -0.022158513 0.03859571 -0.012467378
000190 27 7f 30 3d 2b ed 11 bd 56 c2 98 3c 7a fa a9 3c
       0.043090012 -0.03562657 0.018647354 0.02074932
0001a0 ce c2 03 3d 28 0f 23 3d 1b c5 70 3c 50 5c c7 bc
       0.032168202 0.039809376 0.014695431 -0.02433601
0001b0 4c 7a 15 3b 0b 65 b5 3a d6 64 02 3d 38 56 be 39
       0.002280849 0.0013839317 0.031834446 0.00036303862
0001c0 cb 27 6f 3b 48 35 2b bc 14 c1 22 3c 72 0f 6b bd
       0.0036492224 -0.010449715 0.009933729 -0.057387777
0001d0 cc 34 04 bd f0 30 e9 bc 73 38 41 bd d4 a4 68 bd
       -0.032276914 -0.028465718 -0.047172975 -0.056797817
0001e0 e5 07 fd 3b c6 03 9f bc 94 80 e4 3c 4b ab 2b bd
       0.0077218884 -0.019410979 0.027893342 -0.041911405
0001f0 a5 30 04 3d 4c 50 35 3d 59 43 cc bc fb 88 9a 3c
       0.032272954 0.04426603 -0.024934458 0.018864146
000200 80 33 1e bc af d9 5b bc 37 9f ff bb 79 ac a2 bc
       -0.009655833 -0.013418599 -0.0078009623 -0.019857632
000210 e6 b1 a9 bc c8 06 8c bc f4 6a c5 3c 6e 54 7c 3c
       -0.020714711 -0.017093077 0.02409885 0.015400989
000220 9e 3e e9 3c 0c ee cf bc fa df 97 bc f3 82 00 bd
       0.028472241 -0.025382064 -0.018539418 -0.031374883
000230 cf ea a4 3c a7 3c 28 3c 2f 0b c9 bc 5a b5 b1 3c
       0.020131497 0.010268367 -0.024541466 0.02169292
000240 6f 8e c4 3c de 7f 1d bc 8a 8c 88 3a 82 4b 76 bc
       0.023993699 -0.009613005 0.001041786 -0.015032651
000250 96 ff 59 3c 1a 25 fe bc 3c 3a 00 3d 59 7f c2 3c
       0.013305565 -0.03102355 0.031305537 0.023742365
000260 e3 fb 0e bd 15 dc 1c 3b 9d 69 08 bd eb 78 a6 3c
       -0.034908187 0.002393489 -0.033303846 0.02032133
000270 81 cc f4 bc ea 51 c1 3c 8d 9f 01 bb 82 4f 02 bd
       -0.029882671 0.02359863 -0.0019778938 -0.031814106
000280 8e 62 ab bc 7a a8 c7 bc a2 0d e9 3c 40 36 ad bc
       -0.020921018 -0.024372328 0.028448883 -0.021144032
000290 71 7e c2 3c 9c eb 45 bb 8b b8 a8 3c f5 b7 17 bd
       0.023741933 -0.0030200249 0.02059581 -0.03704067
0002a0 07 fb 90 bc 4d 01 df bc bd 29 c5 bc 22 d8 eb 3b
       -0.017697824 -0.0272223 -0.024067754 0.007197396
0002b0 16 7f d2 3c e1 82 3c 3b c4 c3 d9 3c 2d 5f a1 3c
       0.025695365 0.0028764533 0.026582606 0.019698704
0002c0 ae 77 c4 ba 39 04 84 3c 88 54 a6 3c 2e 69 b4 3c
       -0.0014989281 0.016115295 0.02030398 0.02202281
0002d0 39 da ea bc fd 0a bd 3c 3f e3 92 3c b2 b6 b3 bc
       -0.02866851 0.023076529 0.017930625 -0.021937702
0002e0 ca 6a 57 bd 99 15 97 bb 4c c8 b1 3c fb ab 8d bb
       -0.052592076 -0.004610729 0.021701954 -0.00432348
0002f0 79 11 31 3c 72 11 c3 bc cd 93 44 3c 99 a0 df bc
       0.010807388 -0.02381203 0.011998129 -0.027298259
000300 52 86 f0 bc d5 60 52 ba 20 42 99 bc ec 75 9a bb
       -0.029360924 -0.00080252934 -0.018708289 -0.0047137644
000310 a7 32 b8 bc 0b a5 62 3c 90 51 f7 3c c5 65 a6 3c
       -0.02248509 0.013833295 0.03019026 0.0203122
000320 dc 0a 1a bd 31 23 4d 3c e6 81 96 bc d8 f4 c1 3c
       -0.037608013 0.012520597 -0.018372487 0.02367632
000330 b7 b5 0b bc 40 bb 8c 3c c5 1e 78 bb 9c ad d1 3c
       -0.008527211 0.017179132 -0.0037860137 0.025595479
000340 be 91 0a bc b5 c7 23 bc dd 07 08 bc f7 0e b2 bc
       -0.008457599 -0.009996344 -0.008302656 -0.021735651
000350 39 9d 3a bc 64 49 bb bc 47 66 83 bb 20 47 df 3a
       -0.011390024 -0.022862144 -0.004009995 0.0017034747
000360 57 3d 09 3d 1c cb 98 bc ee c0 1b bd fe f8 1c bd
       0.033505764 -0.018651538 -0.03802579 -0.038323395
000370 51 a4 44 3c ba 9e bc 3c 33 9d 03 3d fb 79 65 bc
       0.012002067 0.023024905 0.03213234 -0.014006133
000380 d3 19 44 bc 14 c1 cf bc db 0a 31 bd 5a b9 20 bc
       -0.011969048 -0.025360622 -0.043223243 -0.009809816
000390 31 ab 13 bd 8e dc 9a ba de 58 db bc f5 c8 f4 bc
       -0.036051933 -0.0011814998 -0.026775774 -0.02988098
0003a0 47 bb 52 bd 90 a3 31 bd 0b de 41 bc a8 00 f6 3b
       -0.051448133 -0.043368876 -0.011832724 0.0075074024
0003b0 88 47 12 3d 89 d1 da bb 5a 43 32 bd 26 eb 67 bc
       0.03571275 -0.0066778106 -0.043521263 -0.014155185
0003c0 36 9c 7d ba ec 7e c6 bb de 24 37 bc 16 cb c3 3c
       -0.00096744613 -0.0060576107 -0.011178223 0.02390055
0003d0 bd 0a fd 3c 94 80 01 3d a2 60 02 3d 98 82 86 3c
       0.03088891 0.031616762 0.031830437 0.016419694
0003e0 d1 35 a0 bb 34 f0 96 3c ce ce 23 bd 98 33 ce 3c
       -0.004889228 0.018425085 -0.039992146 0.025171086
0003f0 de 27 a1 bc 50 5b 56 bd 97 49 56 3c 95 4a bb bc
       -0.01967233 -0.052333176 0.013079069 -0.022862712

action_model._discrete_distribution.branches.0.bias f4 [4]
000000 38 4b 96 3c a9 b6 94 bc 22 ff 9b bb a4 97 94 bb
       0.018346414 -0.018153505 -0.004760639 -0.0045346785
