unity_project_assets/ML Models/v0.2.0/CarMovement.onnx (onnx, 93529 bytes, 6 tensors)

network_body._body_endoder.seq_layers.0.weight f4 [128, 39]
000000 61 9d 31 3e e7 e4 38 bf d1 64 be 3e a5 82 25 be
       0.17345192 -0.7222428 0.37186292 -0.16163118
000010 f0 02 2b 3c 1a d4 6a be 18 18 a2 be 6f a0 a1 be
       0.010437712 -0.22932473 -0.31659007 -0.31567714
000020 90 b4 90 be 65 57 00 be 2a 66 04 be 4d 9b c9 3d
       -0.28262758 -0.12533338 -0.12929597 0.098440744
000030 be 8a 88 bd 4b 5d 0a 3e af 7c c1 bc 21 a4 d6 3d
       -0.06667088 0.13512151 -0.023619024 0.10480524
000040 65 8f 9c be bc 67 2f 3d 19 15 e8 bd a8 6d 70 3e
       -0.3057815 0.04282354 -0.11332149 0.2347933
000050 48 2a 7f 3d c5 53 04 3e 08 8f f6 3c f7 92 93 3e
       0.062296182 0.1292258 0.0300975 0.28823063
000060 19 9a 6b bc 05 ef aa bc d5 2a 02 be 8c 23 13 3e
       -0.014380001 -0.020865927 -0.12711652 0.14369029
000070 d9 fc 95 3d 15 7c a3 3e 43 4e 10 be bc 4d 6c be
       0.073236175 0.31930605 -0.14092354 -0.23076528
000080 49 9b f9 bd b2 20 d8 3e a1 f6 4f 3d 3c 79 9c 3e
       -0.121878214 0.42212445 0.050772313 0.30561244
000090 11 98 10 bd c4 5c bf 3d dd 44 89 3e 25 ec 14 bd
       -0.03530127 0.093438655 0.2681035 -0.036358017
0000a0 e6 7f e4 3d 39 24 37 bd d9 d4 e1 bd 97 f1 cd 3d
       0.11157207 -0.04471228 -0.110269256 0.10055845
0000b0 0b 9b c3 bd 77 32 41 3d 3c c2 17 be cf 41 f2 3c
       -0.095510565 0.047167268 -0.14820188 0.029572396
0000c0 ee 56 d9 3d 48 7e cd 3e 0d 59 d8 be 70 86 50 be
       0.10612284 0.40135407 -0.4225544 -0.20363784
0000d0 7c 8d 06 be 9f fa 91 3e 88 29 95 3a c0 f3 91 be
       -0.1313991 0.2851152 0.0011380175 -0.2850628
0000e0 fe 87 90 be e1 21 61 3d ce bd bc be 14 9a 22 bc
       -0.28228754 0.05496395 -0.3686356 -0.00992443
0000f0 61 76 b3 3e a4 51 03 be 27 33 04 3e 95 97 af bd
       0.35051253 -0.12824112 0.12910138 -0.08573834
000100 c3 54 41 be 11 d4 1a be 00 42 57 be 44 56 08 3e
       -0.1887999 -0.1511996 -0.21021271 0.13314158
000110 7e 23 88 3e 42 7a 0f 3d 49 81 1e 3e 0b 47 0d 3d
       0.26589578 0.035028704 0.15479006 0.03449158
000120 ac 1c 03 be a1 6e 87 bd 79 22 fd 3c 10 86 2e 3e
       -0.12803906 -0.06612898 0.030900227 0.17043328
000130 01 e1 97 3e 15 a1 b2 bd 02 d2 e9 ba 0a 26 4e bd
       0.29663852 -0.0872213 -0.0017839076 -0.050329246
000140 9c 4f 0c 3d c5 ae ac bd 8b 63 84 bd 63 5c 1b 3e
       0.03425561 -0.08431772 -0.06464299 0.15171961
000150 9a 33 de bc 58 38 84 bc 0c 85 f9 3d f4 ce dd 3c
       -0.027124215 -0.016140148 0.1218358 0.027076222
000160 e2 93 ea 3d ee 04 75 be 0c 56 97 be d2 c4 64 be
       0.11453988 -0.23927662 -0.29557836 -0.22340706
000170 7b ae b5 3e 08 2a 3b 3e c4 13 91 be a0 47 fc bd
       0.3548468 0.18277752 -0.28335392 -0.12318349
000180 78 9c 2a ba 3c 17 2b bd ed 97 01 3e 6c 85 3d be
       -0.0006508301 -0.041770205 0.12655611 -0.18507928
000190 56 93 bc be fc 75 a5 bd 6d 2b 75 be 47 e0 d1 be
       -0.36831158 -0.08079144 -0.23942347 -0.40991423
0001a0 0d fb 34 be c2 41 ac 3e 82 33 35 3d 29 c5 61 be
       -0.17673893 0.3364392 0.044238575 -0.22047867
0001b0 cd 59 ca 3c 20 68 ec 3d b4 2b 68 be 0c 36 30 3d
       0.024701023 0.11543298 -0.22672921 0.043020293
0001c0 02 33 08 be 53 e1 2c be 70 e5 a9 be 60 5b f1 bd
       -0.13300708 -0.1688283 -0.3318286 -0.117850065
0001d0 ec e6 f7 3c c3 74 69 3d 34 bf 36 bd 04 f8 8a 3c
       0.03026148 0.05699612 -0.04461594 0.016963966
0001e0 97 c4 85 be 04 55 6b be 25 6c 9f bd ab 1f 7e 3d
       -0.2612655 -0.2298165 -0.07784299 0.06204192
0001f0 fc 5b 8f bb b7 ec b5 3c f4 89 3a bd fd 16 3d be
       -0.004374979 0.022207601 -0.04554172 -0.184658
000200 1d 51 6f 3d 4f 06 ba 3d 38 22 34 3e d9 52 30 3e
       0.058426965 0.090832345 0.17591178 0.17219104
000210 db b4 90 3e be 94 2e 3c 55 62 12 3e 47 bc 98 3e
       0.28262982 0.01065558 0.14295323 0.29831144
000220 9d 4d a5 3e 1c 15 f6 bd 46 75 23 be d5 0c 64 bd
       0.32285777 -0.12015745 -0.15962705 -0.0556763
000230 d9 9d 9a be fb 71 69 bb 64 85 42 3d 07 d4 fb bd
       -0.30198553 -0.0035620916 0.047490492 -0.122963004
000240 ae 0c 68 be a1 a5 5e 3d 44 8b c5 bc 8c e7 44 3e
       -0.22661087 0.054357175 -0.024114259 0.19228953
000250 e0 99 2e bd 33 c4 92 3e 0a d7 63 3e 1b 8d 7b be
       -0.042627215 0.28665313 0.2225 -0.24565546
000260 c6 ad 2e bd 80 06 3a be 7a 90 02 be 19 52 84 3d
       -0.042646192 -0.18166542 -0.12750426 0.064609714
000270 3f c6 96 bb 0a b0 af bd 78 95 a2 be 0e 73 85 bd
       -0.0046012695 -0.08578499 -0.3175466 -0.065160856
000280 f1 83 8d 3c 10 c2 a8 be a7 b6 11 3e 15 8f 0d 3e
       0.017274829 -0.32960558 0.14229833 0.13824113
000290 85 78 6a 3c d5 fb 19 3b b1 95 07 3e b0 09 50 3c
       0.014310961 0.002349605 0.13240696 0.012697622
0002a0 4c 05 75 3d cb 90 fd bc 7d bd 5c be d8 bc a1 be
       0.059819505 -0.030952832 -0.21556659 -0.3158939
0002b0 10 94 52 3e 3a 1b c3 3e 8f 7f 58 3e 9c 39 1d bc
       0.20564294 0.3810671 0.2114241 -0.009596255
0002c0 b0 96 d0 3e 7f 11 0b 3e 3b 9e a0 bd 35 b4 9f bd
       0.40739965 0.13580893 -0.0784268 -0.07798044
0002d0 25 99 4e be 0c a9 8f be f3 ef 87 bd 44 49 1f be
       -0.20175608 -0.2805866 -0.066375636 -0.15555292
0002e0 bb 83 16 ba ff d8 6b be 5a e5 bf 3d f5 2a 9d bc
       -0.0005741675 -0.23031996 0.09369917 -0.019185523
0002f0 5b c3 ef bc 47 a0 3a 3e fe 47 5d 3d 88 fd b2 bd
       -0.029267957 0.18225203 0.054023735 -0.087397635
000300 dd 27 94 be fb a4 54 3e 30 42 71 bc dc ff a3 be
       -0.28936663 0.2076606 -0.014725253 -0.32031143
000310 b8 ae cf 3d 0a 38 e0 bd a7 da 04 be b1 78 a3 bd
       0.10140747 -0.109481886 -0.12974034 -0.079820044
000320 12 b6 fa bd 48 78 41 3e 12 4f 04 bd 81 14 9d 3d
       -0.122417584 0.1889354 -0.03230197 0.076699264
000330 0f 3f dc bd 3e d9 7f 3c 8f a6 d9 3d ee 5f 0f 3d
       -0.10754215 0.015615759 0.10627472 0.035003595
000340 b1 bb f5 3d b4 28 e4 bd 10 e6 7c 3c 29 eb a3 3d
       0.1199869 -0.11140576 0.015435711 0.080038376
000350 6d 4e 78 3e 98 86 c6 3b f2 cc 05 be f6 ff c3 bd
       0.24248667 0.0060585253 -0.13066462 -0.09570305
000360 0d 33 d3 3d 8b 1d 7d 3c 0e 83 75 3e 33 b3 1a 3e
       0.103124715 0.015448938 0.23975775 0.15107422
000370 62 7c c0 bd 0b b3 6c be bb aa d4 bd 16 1d 6a 3e
       -0.09398724 -0.23115174 -0.10384127 0.22862658
000380 ce 93 80 be d6 0e f1 bb c8 31 91 bd 82 24 47 be
       -0.25112766 -0.007356505 -0.07089573 -0.1944752
000390 b3 68 0b be 35 ec 78 ba a0 a7 2a 3e bf 2f ca 3d
       -0.13614158 -0.0009495647 0.16665506 0.09872388
0003a0 6a be 9e bc d3 4a e1 3c ab c8 95 3e c5 be 1d 3e
       -0.019377906 0.0275015 0.2925466 0.15404804
0003b0 73 da e4 3d e3 cd 50 be ec 33 b6 3d d8 f8 42 be
       0.111744784 -0.2039104 0.08896622 -0.19040239
0003c0 e5 6b c9 bd a8 21 15 bc 96 db 82 3d c5 59 3d 3e
       -0.098350324 -0.009102263 0.06389539 0.18491276
0003d0 5e fa e1 3d 9b 9b 98 3e b6 b3 99 bd ce d8 51 3e
       0.11034082 0.29806218 -0.0750498 0.2049286
0003e0 7b 67 99 3e 66 de 53 3b 91 93 e5 bd 9f 67 62 3e
       0.29961762 0.0032328605 -0.11209787 0.22109841
0003f0 5e ce 9b bd 5e 48 0d 3e ab c1 e5 bd b2 0d 0e 3b
       -0.07607721 0.13797137 -0.1121858 0.0021675644

network_body._body_endoder.seq_layers.0.bias f4 [128]
000000 43 fa 11 3d 75 8f 23 3c 72 d8 5e 3a 3e ac c2 3b
       0.03563906 0.009982933 0.0008500881 0.005940943
000010 dc 9d d9 3a c7 aa 4a bc 9a a9 bc 3c ff 78 d0 3b
       0.0016602832 -0.012369818 0.023030091 0.00636208
000020 fe 51 0d 3d 7f 2d 04 3d 7e 51 80 3c 5e 44 47 bd
       0.034502022 0.03226995 0.015663859 -0.048649184
000030 95 94 99 3c c6 9b 26 3b a3 da c5 3c 38 6d 7a ba
       0.018747607 0.0025422438 0.024152106 -0.0009553018
000040 39 70 81 3c 4b 88 1a 3d ac 19 07 3c 1c 0c 5d 3c
       0.015800582 0.037727635 0.008245867 0.013491657
000050 fc 1c 08 3d 11 9f a3 3b 5e 43 40 3d dc be 2c bc
       0.033230767 0.0049933274 0.046939246 -0.010543551
000060 8b ab 01 3c e7 c4 5f bc 9a c1 e7 3c 53 30 8f bc
       0.007914434 -0.013657785 0.028290559 -0.017479097
000070 83 61 17 3c 2b 60 d2 3c 3f c5 12 bd 90 0e 9e 3c
       0.009239557 0.025680622 -0.03583264 0.019294053
000080 fa e7 10 3d e2 77 43 3d 2c 0f 98 3b b5 fd 97 3c
       0.03537748 0.04772175 0.0046404805 0.018553594
000090 d2 97 42 3c 1a b2 dc 3c 66 d4 90 3a cf 11 74 3c
       0.011877017 0.026940394 0.0011049628 0.014896824
0000a0 c1 55 80 3d 15 26 dd bb 2f dc 80 3d 29 2c 47 3c
       0.06266356 -0.0067489245 0.06291997 0.012156525
0000b0 81 5c 50 3b 14 4a e9 bc 61 c1 f3 3c 3a ff da 3c
       0.0031793418 -0.028477706 0.029755296 0.02673303
0000c0 04 0d 67 bc b5 ca 82 3b 58 2a 6f bd 18 92 50 bc
       -0.014102224 0.0039914497 -0.05838999 -0.012730144
0000d0 4a ed d2 3c 33 9a 4a 3b 2b fb 73 3c 31 2b 10 3d
       0.025747914 0.0030914664 0.014891426 0.03519744
0000e0 fa 9d bb 3c 22 f6 38 bc 20 12 cc 3c b0 58 82 3c
       0.022902478 -0.011289151 0.024910986 0.01591143
0000f0 be 3e 0e 3d 16 07 0d bd 16 9a 4a 3d 2f a0 f2 3c
       0.034727804 -0.034430586 0.049463354 0.029617397
000100 ad f5 4e 3b 7a f0 04 bc 7e 17 aa 3c 86 8d 6a bc
       0.003157954 -0.008113975 0.020763155 -0.014315968
000110 73 85 2a bc c2 f1 ef ba a0 fc 9d 3a e8 d2 7f 3c
       -0.010407793 -0.0018306302 0.0012053438 0.015614249
000120 3b 65 ec bb a7 e5 28 3b 76 b5 00 bc b2 cc 3e 3d
       -0.007214216 0.002577165 -0.007855764 0.04658193
000130 06 9d df b9 3e 4f 1c 3c 41 70 cb 3c 50 47 5c 3c
       -0.00042650866 0.009540377 0.0248338 0.013444737
000140 11 21 df bb f3 3c 9e 3c 8a 27 51 bc 26 9d 19 3d
       -0.0068093617 0.019316172 -0.0127657745 0.037503384
000150 c2 90 b4 3c 25 4d f2 3c eb 48 03 3c 95 2d 4a 3d
       0.022041682 0.029577801 0.0080129905 0.049359877
000160 14 5d 37 3d e4 4f d1 bc ff ae 88 3c 67 0a ab 3c
       0.0447665 -0.02555079 0.016685007 0.020878984
000170 bb a8 c1 3c 94 0c 47 bb c2 14 c3 3c bc 89 0e 3d
       0.023640027 -0.0030372487 0.023813609 0.034799322
000180 cb c7 c6 bb 26 00 a5 3c da 66 01 3d ca e0 f8 3c
       -0.0060662976 0.020141672 0.031592228 0.030380625
000190 bb 02 33 3d 99 61 71 3c b5 f2 7a 3c b6 cf 0f 3d
       0.043703776 0.014732742 0.015316655 0.035110198
0001a0 ed 59 ca 3c 82 c5 b8 bc 62 49 47 3c 08 13 1c 3c
       0.024701083 -0.022555117 0.012163492 0.009526022
0001b0 8f a2 1f 3d fd 60 f1 3b 1a a0 04 3d f9 ca 51 bc
       0.038973387 0.007366298 0.032379247 -0.01280474
0001c0 df 70 82 bc ef a3 2f 3d 10 92 25 bb a9 b4 ab bc
       -0.015922962 0.04288095 -0.0025264062 -0.020960169
0001d0 18 97 8f b9 60 bd 3a 3d 7a 02 94 3c 83 47 1a 3d
       -0.0002738766 0.04559076 0.018067587 0.037665855
0001e0 af e5 ee bb 9c ea 1c 3b 72 e0 44 3c 27 c4 a1 3c
       -0.007290564 0.002394355 0.012016403 0.019746853
0001f0 4d c1 ff 3c d6 2b a8 3c ef 07 bb 3c 4c c1 0f 3d
       0.031220103 0.020528715 0.022830931 0.03509645

network_body._body_endoder.seq_layers.2.weight f4 [128, 128]
000000 d4 3e a0 3d c1 37 3a 3b b6 b4 20 bd d1 b1 96 3c
       0.078244835 0.002841458 -0.03923484 0.018395336
000010 35 ef fc bc 41 96 ee bd 48 ff 3a 3c cd 75 e9 3d
       -0.030875782 -0.116497524 0.011413403 0.11399422
000020 72 c7 f7 3b 23 6a 28 3d 36 62 2b bc af 42 f4 3c
       0.0075616175 0.041116845 -0.010460427 0.029816953
000030 8f ce 08 bd 35 ed e4 bc ec ad 70 be af a2 09 be
       -0.033400115 -0.02794514 -0.23503846 -0.13440965
000040 71 5b 4e 3d 4a 63 94 3d 68 45 80 be a5 93 17 be
       0.050380174 0.072455004 -0.25052953 -0.14802416
000050 fa 4b 10 3e fa 91 f9 bc 64 80 94 3d 2c 1d a7 3c
       0.14091483 -0.030465115 0.07251051 0.020399652
000060 24 a9 4f bd 3c 67 2a 3d be e5 2b 3b 04 9d f8 3d
       -0.050698414 0.04160236 0.0026229466 0.12139323
000070 bb cd 55 bd ab 49 f1 3d d1 b8 7c 3d bf 70 dc bd
       -0.052198153 0.11781629 0.061699692 -0.10763692
000080 3c 18 1f 3d fe b2 a2 3c ef b1 d9 3d 82 f6 58 bc
       0.03884147 0.01986074 0.10629641 -0.013242366
000090 df 7f e5 3d e3 ad 29 bd ca 28 5d bc f6 60 26 3e
       0.1120603 -0.041425597 -0.013498494 0.16247925
0000a0 5d db 2f 3e b9 db e2 bd 1e 01 ca 3c eb 1d 12 3e
       0.17173524 -0.11077065 0.024658736 0.14269225
0000b0 ee ca 8c bd 09 3d a5 bc 33 33 59 bd 11 fd 75 3d
       -0.06874643 -0.020170705 -0.053027343 0.060055796
0000c0 69 5f bf bd a6 4c be bd 4d f1 5f 3d a1 65 3f 3d
       -0.0934437 -0.09291963 0.05467348 0.04672778
0000d0 1f 7d b7 bb 9f 43 ed 3b 5e e7 a6 bd b4 82 94 bd
       -0.0055996324 0.007240727 -0.081495985 -0.07251492
0000e0 b4 05 36 3e 0a 87 a5 bd 51 30 b3 3d 04 d3 aa bd
       0.17775613 -0.08082397 0.0874945 -0.08341029
0000f0 6c d3 63 be 35 cb 99 3b 1e 47 83 bd 43 83 d2 3d
       -0.2224862 0.0046934136 -0.06410049 0.102789424
000100 29 02 42 bd 34 ac b0 bc 8f 50 10 3e bd 7c 53 bd
       -0.04736534 -0.021566488 0.1409323 -0.05163263
000110 d1 7d b7 bd f5 52 a8 bd c8 65 e4 bc c9 f2 93 3d
       -0.089595445 -0.08218948 -0.027880564 0.07224042
000120 23 32 65 bc c6 d5 ad 3d 59 76 cc bb 19 bf 1f 3e
       -0.013989004 0.0848804 -0.006239694 0.15600242
000130 0d 73 fc bd 48 fc cf 3d ae b0 c8 bc 87 52 a3 bd
       -0.12326632 0.10155541 -0.02449831 -0.07974725
000140 e8 24 82 3d 0a f2 fb 3a 6b 32 bb bc bd fe af bd
       0.063546956 0.0019221914 -0.02285119 -0.08593509
000150 03 f6 96 bd 7d 2a 1f be ed ea f0 bb ee e7 c4 3d
       -0.07371142 -0.15543552 -0.007352224 0.096145496
000160 70 5e d9 3d 9e ae ea 3a 7c 9e c1 bc 2c 03 5d 3d
       0.10613716 0.0017904823 -0.023635142 0.053958103
000170 0f e4 32 be 2f 02 b2 3d 20 e7 bc bd 99 5b 0f 3d
       -0.1746981 0.08691823 -0.09223771 0.034999464
000180 21 87 aa bd df fd 96 3d 43 8e 80 be 40 d6 54 3b
       -0.08326555 0.07372641 -0.25108537 0.0032476336
000190 53 9b 19 3e 67 0c a8 3c 87 fc 08 bd 3b 7f 3c bd
       0.15000658 0.020513726 -0.033443954 -0.046019774
0001a0 8e 22 ac 3d 87 14 ae bd 85 9e 81 3d 5b c0 7c 3d
       0.08405028 -0.08500009 0.06329063 0.061706882
0001b0 be 8c 52 bd 63 28 78 bd 5a 39 0d bd 9b 30 91 3c
       -0.051403753 -0.06058539 -0.034478523 0.017723372
0001c0 c4 8a ac 3c 0e 7c 07 3e 07 1c 51 be 2f 9b 62 3d
       0.021062262 0.13230917 -0.20420848 0.055323776
0001d0 8d c4 d3 bc ea 42 7c 3b 69 85 ed 3c c3 a6 82 3e
       -0.025850559 0.0038492032 0.028994279 0.25517854
0001e0 da 98 29 be 1e 93 1b 3d 47 a4 08 bd 29 2d a8 bd
       -0.16562214 0.0379821 -0.033359792 -0.082117386
0001f0 09 89 f1 3c e6 26 02 bc c6 46 92 3d 3d 81 6c bc
       0.029484289 -0.007943844 0.07142405 -0.01443511
000200 b5 84 ce bd 62 1d 81 bd a8 c7 2a 3e 51 31 8c bd
       -0.100839056 -0.063044325 0.16677725 -0.06845344
000210 cc 76 e5 3d f9 ff ed 3c 07 64 1f 3c 4d 44 85 bd
       0.11204299 0.029052721 0.009728438 -0.06507168
000220 47 9d 03 3e 5f 92 18 be d2 59 87 bd 77 95 ff 3a
       0.12852965 -0.14899586 -0.06608929 0.00194995
000230 6f d2 ad 3d 3c 95 7c 3d 53 d1 0d bd 05 6d 88 bd
       0.08487403 0.06166576 -0.034623455 -0.06661419
000240 c7 7b 99 3d cf b2 77 3d 86 15 9c 3c 7e e8 2a 3e
       0.07494312 0.06047326 0.019053232 0.16690251
000250 78 36 db bb 99 80 55 3d 29 55 d9 3d e9 47 b3 bd
       -0.006689843 0.052124593 0.10611946 -0.0875395
000260 82 99 1d bd cc af 41 bc d7 27 11 3c b2 33 03 3e
       -0.038476475 -0.011821698 0.008859596 0.12812689
000270 91 4a 14 3d b7 80 3c bd 17 75 6c bc 53 d7 b7 bc
       0.036203925 -0.04602119 -0.014432213 -0.022441542
000280 fe 89 0a 3e 81 64 24 3e cd 4c 18 3d 1c 46 85 3c
       0.13529202 0.16053964 0.037182618 0.016268782
000290 7f 15 3e bd 4a b1 9c 3b e1 67 a2 3d 79 ca 87 bd
       -0.04640722 0.0047818767 0.079299696 -0.066304155
0002a0 c4 a0 0f 3e 50 c9 42 3d 51 6e b6 3c 67 c4 11 bd
       0.14026171 0.047555268 0.0222694 -0.035587694
0002b0 04 eb 24 be 78 8a d7 3c e7 e4 de bd b1 e9 c4 bc
       -0.16105276 0.026311144 -0.108835034 -0.024037214
0002c0 60 a4 bf bc bc 75 21 be f2 6f f6 3d c0 bb 25 3d
       -0.02339381 -0.15767568 0.120330706 0.040462255
0002d0 b6 42 84 3d d7 16 c5 bc 62 19 88 bd 4b 36 c8 3c
       0.064580366 -0.024058742 -0.066454664 0.024439951
0002e0 5a b9 57 bd 07 3c 86 3d 56 3e 1c 3e f3 93 92 bd
       -0.052667 0.06554418 0.15258154 -0.07157125
0002f0 d4 e1 f3 bc 15 f2 b5 bd d5 1c a6 bd cc 6a cd 3c
       -0.02977077 -0.08884064 -0.08110968 0.025075339
000300 dc c5 0e 3e 1e cf 55 bd 81 5d fe bd ba 8d 0d bd
       0.13942665 -0.052199475 -0.12420178 -0.03455899
000310 b9 9e e4 3d be ba 0e bd 09 d4 32 3e e6 b7 c5 3d
       0.111630864 -0.03484606 0.17463697 0.096542165
000320 27 39 02 3d f4 e2 69 3d 61 a4 af 3c 7e b3 1a bd
       0.031792786 0.057101205 0.021440687 -0.037768833
000330 71 64 ff 3b c6 c2 cf 3d a5 75 87 3b 35 19 92 bc
       0.007793956 0.10144572 0.0041338974 -0.017834285
000340 77 a9 9f bd b2 0a 70 3c 5d 22 14 3e 1a aa e8 bc
       -0.07795995 0.014650987 0.14466234 -0.028401423
000350 01 b3 b0 3d 0c 32 ed bc 1f dc 98 3c 01 21 19 3d
       0.08627892 -0.028954528 0.01865965 0.03738499
000360 02 ad c9 3d b2 e8 d3 3d e1 61 41 bd b4 47 9a 3c
       0.09847452 0.103471175 -0.047212485 0.018833019
000370 de 27 fd 3d c3 8d 6c bb 2e c8 a4 bd 8a 7a e2 3c
       0.1236112 -0.0036095239 -0.08045994 0.027646322
000380 30 3a 2f bd a5 02 d0 3d 61 a7 d6 3b c1 39 3e 3b
       -0.0427801 0.101567544 0.006550715 0.0029026123
000390 93 a1 ac 3b c6 15 73 bd 9b 08 22 be 47 39 7a 3d
       0.0052682846 -0.059346937 -0.15823595 0.06108978
0003a0 a7 77 aa 3c 46 7c 23 be e7 2b 3a 3e a0 4b d7 bd
       0.020809008 -0.15965375 0.1818081 -0.10512471
0003b0 83 10 26 3e 75 21 80 3d e1 9a a4 3d 3c 0a 22 be
       0.16217236 0.062563814 0.08037353 -0.15824217
0003c0 23 91 0e 3b 01 39 3f 3d b4 1e f8 bd ea e6 1b 3b
       0.0021753989 0.046685223 -0.12115231 0.0023788759
0003d0 8e 61 13 be f9 47 f3 bc 6e 15 32 3c ab bd 68 3d
       -0.14392683 -0.029697405 0.010869367 0.056821506
0003e0 61 9a 09 3e 3e 9a 14 bd 6e 4e c5 3d df 75 c1 3d
       0.13437797 -0.03627991 0.096341 0.0944631
0003f0 ea 9f 14 3d e6 b5 12 3e 2c 01 a2 3d 39 99 41 3c
       0.03628532 0.14327201 0.0791038 0.011816316

network_body._body_endoder.seq_layers.2.bias f4 [128]
000000 ef da e7 3c 08 ae 86 3c 4a cb 10 3b ae 03 b1 3c
       0.028302638 0.016440406 0.0022093826 0.0216082
000010 0e 53 c7 3c ac da b7 3c 77 08 03 3c ca 65 41 bb
       0.024331596 0.022443138 0.007997624 -0.0029510134
000020 7b 3c 3b 3c 1c 9d 8d 3c d3 6b c1 3b 1c e1 86 3c
       0.011427994 0.01728683 0.005902746 0.016464762
000030 2f 3b b9 bc 35 4f fb 39 9a ca c8 3c 4b 8e b8 3c
       -0.022611229 0.00047933465 0.02451067 0.022528788
000040 8f df 5e 3b 9d 82 2c 3c 71 5f db ba 88 a7 6d 3c
       0.0034007763 0.0105291875 -0.0016736818 0.014505275
000050 46 61 cc ba db ca c3 3c ac 05 58 bb 71 4d 0a bc
       -0.0015592955 0.02390044 -0.0032962365 -0.008441315
000060 ee b0 46 3d 19 45 8d b9 f0 5c d4 3c 6c 54 95 3c
       0.048508577 -0.00026945097 0.025923222 0.018228732
000070 19 9f d3 3c fd 52 cc bb 22 27 e0 3c 7c 15 08 3d
       0.0258327 -0.006235479 0.02736241 0.033223614
000080 a9 4a 41 3d 40 7e 34 3c 35 9a 07 bc e5 42 10 3d
       0.047190342 0.0110164285 -0.008276512 0.035220046
000090 d0 58 28 bc 1c c3 a5 3c f2 a0 db 3b b4 12 d4 3c
       -0.010275081 0.020234637 0.006702536 0.025887825
0000a0 f2 97 26 3d de a5 41 3c 0a 11 b3 3c 3d 09 e2 ba
       0.04067225 0.011819331 0.02185871 -0.0017245185
0000b0 50 eb e8 bb 81 7f 98 3a 4f aa 92 bb 66 93 b2 3c
       -0.0071081296 0.0011634679 -0.004475869 0.0217988
0000c0 27 00 37 bc 46 1b 12 3b 25 05 fa 3b 8f 32 a4 3b
       -0.01116947 0.0022294088 0.007630008 0.00501091
0000d0 55 1a e4 3c 42 03 1a bc 77 38 53 bc f7 ce e2 3c
       0.027844587 -0.009400191 -0.01289188 0.02768658
0000e0 b8 e3 ff 3c 6c e6 02 3c 4c 8f 78 bb 2e ed 1d 3c
       0.031236514 0.007989507 -0.0037927208 0.009639068
0000f0 8f 8c 59 bc b5 78 be 3c 17 5c 56 bc d7 a5 b8 3c
       -0.013278141 0.023250917 -0.013083479 0.022540016
000100 11 31 a6 3c 0c 07 c1 bc 2e 35 89 3c 8e 65 93 3a
       0.020287069 -0.02356293 0.01674899 0.0011245476
000110 9d fb c0 3c 99 eb 12 bc eb 2a 60 3c ca 68 97 38
       0.023557479 -0.008967304 0.013682107 7.2197596e-05
000120 15 8a e3 3c 75 49 19 bc ee d4 62 3a 02 98 50 bc
       0.027775804 -0.009355892 0.0008652945 -0.012731554
000130 d0 40 5b bb 1f da 1c bc 90 ca 85 3b d4 bf f6 bb
       -0.003345538 -0.0095734885 0.004082985 -0.007530192
000140 1f 0f 88 3c 8e 82 02 3b bd 12 de 3a 8b 27 ca 3c
       0.016608773 0.0019914242 0.001694284 0.024677059
000150 85 7b c1 3c 77 57 10 3c e2 12 86 3c a4 31 eb 3c
       0.023618469 0.008809916 0.016366426 0.028710194
000160 f3 81 34 3c 7e b1 b4 3c 12 55 c4 3c a6 58 0c 3d
       0.01101731 0.022057291 0.023966346 0.03426423
000170 62 c4 83 bb ec a8 d0 3b 0c c2 a5 bb 57 c4 87 3c
       -0.0040212134 0.0063677933 -0.0050585326 0.016573114
000180 2d 9d 1d 3c 94 c7 15 3c bc e5 4d 3d 18 87 8d bb
       0.009619993 0.009141821 0.05026792 -0.004319083
000190 80 55 ee 3c ad 49 8b bc 63 93 ee 3c 27 90 d1 3c
       0.029093504 -0.017002905 0.029123014 0.025581433
0001a0 d5 dd 35 3d 16 22 11 3d 50 9e 0a 3d 7b be e8 3b
       0.04440101 0.035432898 0.033842385 0.007102785
0001b0 24 f1 ec 3b f2 3e 9e 3a ab 6f de 3c 8c be 7a 3c
       0.0072308946 0.0012073203 0.027152857 0.015304219
0001c0 af 5b 7a 3c 9c ac a7 3b e5 18 45 3c 7f 72 ae 3c
       0.015280648 0.005117012 0.012029861 0.02129483
0001d0 33 70 e2 3c 16 f0 94 3c de 12 61 3c 76 1c 6a 3c
       0.027641391 0.018180888 0.013737408 0.014289012
0001e0 9d 0e 91 3b a4 16 b0 bc aa 21 e7 3c c1 6a 20 3a
       0.004426791 -0.02149517 0.028214294 0.0006119423
0001f0 fb bf ea 3c eb 27 11 3d 7a fc a8 bc 73 a3 e3 3c
       0.028655997 0.03543846 -0.020628203 0.0277879

action_model._discrete_distribution.branches.0.weight f4 [4, 128]
000000 64 dd 20 3d ac e8 32 3c 53 4e 3d 3c 08 38 bc 3d
       0.039273635 0.010919731 0.0115543185 0.091903746
000010 13 3c e7 3c 60 d2 76 3c c7 c6 43 bc b4 82 eb bc
       0.028226888 0.015064806 -0.011949248 -0.028748848
000020 eb de 30 bd f7 d2 2c 3c 78 92 57 bc 74 61 91 ba
       -0.04318134 0.010548345 -0.013157479 -0.0011091665
000030 ef 13 88 bc e4 23 5e bd ba e8 d3 3c ee cb 1e bd
       -0.016611068 -0.054233447 0.025867809 -0.0387687
000040 c3 ff d5 bc f9 e8 df bc 2a 59 76 bd 3b 7b 08 bd
       -0.026122933 -0.02733277 -0.060143627 -0.033320647
000050 2c c4 6b bd 4d 47 c7 3c f5 39 3b bd 39 93 ad bc
       -0.05756013 0.024325991 -0.04570957 -0.021188365
000060 a9 3a e9 3c 48 e6 e4 bc 73 61 ca 3c b4 6f 95 bd
       0.028470354 -0.027941838 0.02470467 -0.07296696
000070 45 8d 2a 3d 46 a9 2b bd ac 8f 1a bd 67 65 cb 3c
       0.04163863 -0.04190948 -0.037734672 0.024828626
000080 e4 86 55 3d 52 9f 12 3c 5e 50 29 bd d8 81 f7 3c
       0.052130595 0.008949118 -0.04133641 0.030213282
000090 10 68 e3 bc 55 c5 bc bc 23 32 31 bd 04 40 c6 3c
       -0.027759582 -0.023043314 -0.043260705 0.024200447
0000a0 6c d7 33 3d b2 41 38 3c 75 f7 a5 3c ab f8 8b bc
       0.043906614 0.011246132 0.020259598 -0.017086348
0000b0 58 6d 21 bd 0e 1e 87 bc e9 1d 94 bc 9e 88 23 bd
       -0.03941092 -0.016493823 -0.018080669 -0.03992521
0000c0 17 33 b8 bc 9d a2 59 bd 34 af 93 3c e3 db 29 bd
       -0.022485299 -0.053133596 0.01802788 -0.041469466
0000d0 5a 2e ce 3c 7f 49 e4 bc 3f 61 da bc 61 aa 02 3d
       0.025168587 -0.027867077 -0.026657699 0.031900767
0000e0 4d 3d 8a 3c f5 b0 7c 3b 55 0e e9 bc e5 16 a3 3c
       0.016874934 0.0038557623 -0.028449217 0.019908378
0000f0 ad cd 09 bd 22 ac d1 3c 5f c3 ad bc 05 1f 2d 3d
       -0.033643413 0.025594775 -0.021211324 0.04226591
000100 44 9b ec bc ee 05 93 b9 bd 7b d6 3b 04 ef 02 bd
       -0.02888263 -0.00028042443 0.0065455125 -0.031966224
000110 c5 e4 fe 3c 9c f7 cb bc 79 67 e8 bc 8f 32 00 bd
       0.031114945 -0.024898343 -0.028369652 -0.031298216
000120 cc 5a a5 3c 34 9e 0e bd cf 84 19 bc e1 7a 0f bd
       0.020184897 -0.034818843 -0.009370043 -0.035029296
000130 42 89 ad 3a 48 2f 40 bd d4 81 a9 39 1a 0c 2f bd
       0.0013239759 -0.04692009 0.0003233092 -0.04273615
000140 ea 4b 42 3c a7 fc 80 bc c3 da 8d bb d0 ff 9a 3c
       0.01185892 -0.015745474 -0.004329057 0.018920809
000150 bf 8d 8d 3c 7b 68 0e bd 15 d1 03 bd 8a 9e bc 3b
       0.017279504 -0.03476761 -0.032181818 0.005756204
000160 67 27 93 bc e3 f8 30 3d 11 82 0e 3c 9c 44 e5 3c
       -0.017963124 0.043206107 0.008698002 0.027986817
000170 54 1a 08 bd ca 6d d6 bc e0 01 40 bd bc d6 d6 3b
       -0.033228233 -0.026175398 -0.04687679 0.00655636
000180 53 2b 3a 3c 15 f3 bc bc db b6 20 3d d9 b0 4e bc
       0.011362868 -0.02306513 0.039236885 -0.012615406
000190 c8 af 34 3d fc 0b 18 bd c2 53 9f 3c 43 d4 aa 3c
       0.04411295 -0.037120804 0.019449119 0.020853167
0001a0 22 b1 0c 3d e3 dc 28 3d 6c 4d 7a 3c 41 43 da bc
       0.034348615 0.04122628 0.015277248 -0.026643397
0001b0 02 49 11 3b 5f 9f 8b 3a 1c 51 04 3d f5 16 8d 38
       0.002216876 0.0010652355 0.032303914 6.72768e-05
0001c0 ac 5c 52 3b 44 73 3f bc 29 93 29 3c 85 94 75 bd
       0.0032098694 -0.011685196 0.010350027 -0.059956092
0001d0 17 34 14 bd 32 ae 07 bd 0e 8b 46 bd 12 8f 68 bd
       -0.03618249 -0.03312511 -0.048472457 -0.056777067
0001e0 02 a4 e0 3b a2 bf ac bc 97 e2 fb 3c 7d 06 35 bd
       0.0068554888 -0.021087471 0.030747695 -0.04419564
0001f0 48 44 08 3d b4 63 3d 3d f4 61 df bc 3b 05 99 3c
       0.033268243 0.046237662 -0.027268387 0.018679252
000200 68 93 29 bc eb 47 68 bc e1 d5 04 bc bb 76 af bc
       -0.010350086 -0.014177303 -0.008107633 -0.02141892
000210 06 bb b2 bc b6 82 93 bc 0e 42 ce 3c ec 01 84 3c
       -0.021817695 -0.018006664 0.025177982 0.016114198
000220 a3 d6 ed 3c 85 d8 d3 bc c6 a2 a0 bc ac b3 03 bd
       0.02903301 -0.02586008 -0.019608866 -0.03215377
000230 14 55 ad 3c 49 08 14 3c 3e b7 cf bc 44 62 af 3c
       0.021158732 0.009035178 -0.025355931 0.021409161
000240 71 02 c9 3c 4b 3c 36 bc 73 99 81 b9 6a de 88 bc
       0.024537297 -0.011122773 -0.00024719126 -0.016707618
000250 a7 02 43 3c cd 69 03 bd db ba 02 3d f9 76 c7 3c
       0.011902488 -0.03208332 0.03191648 0.024348723
000260 f9 71 14 bd f8 18 ab 3a 8f e6 0b bd 9d a5 9d 3c
       -0.036241505 0.0013053706 -0.034155425 0.01924401
000270 33 4b 00 bd 99 7b c5 3c d1 cd 4a bb 79 4e 07 bd
       -0.031321716 0.024106788 -0.003094543 -0.03303382
000280 56 6a b7 bc c1 60 ce bc 68 6f ec 3c c9 83 b5 bc
       -0.022389572 -0.02519262 0.028861716 -0.022157567
000290 7c 83 c6 3c 77 a5 8d bb 07 05 b3 3c 78 54 1d bd
       0.024232619 -0.0043227035 0.021852983 -0.038410634
0002a0 98 91 97 bc 9c 50 e5 bc 82 a2 cd bc d6 ef cf 3b
       -0.018502042 -0.02799254 -0.025101904 0.0063457293
0002b0 9e cf d5 3c 48 99 de 3a 68 3f e1 3c 57 11 99 3c
       0.026099976 0.0016982937 0.027496055 0.018685026
0002c0 ee 5a 3a bb 2a 8b 77 3c 61 d0 a6 3c 0e 12 a7 3c
       -0.0028435546 0.015108863 0.020363035 0.020394351
0002d0 e9 38 f3 bc b0 5d b1 3c 32 4c 9b 3c f8 a2 b9 bc
       -0.029690223 0.021651119 0.018957231 -0.022660717
0002e0 db 9f 5e bd 26 76 b0 bb 3c c4 b6 3c da 60 a7 bb
       -0.05435167 -0.005385178 0.022310369 -0.005107981
0002f0 69 8d 35 3c 6f 29 cb bc 42 0e 37 3c 6d 37 e8 bc
       0.011081078 -0.02480003 0.011172833 -0.028346742
000300 0b fc ff bc 90 6d d4 b8 6e e3 9c bc e7 80 c5 bb
       -0.031248113 -0.00010129355 -0.019151416 -0.0060273292
000310 3f 4e bf bc aa a8 5e 3c b1 5a fd 3c 25 76 ac 3c
       -0.02335274 0.013590017 0.030927034 0.02105243
000320 25 40 1e bd dc e2 55 3c 25 f0 9b bc 92 54 c7 3c
       -0.03863539 0.013054576 -0.019035408 0.024332318
000330 3d eb 20 bc ef 1d 83 3c a5 9d 9a bb ee a4 ca 3c
       -0.00982171 0.016005484 -0.0047184997 0.024736848
000340 04 bb 20 bc c0 ff 30 bc 76 9c 15 bc d5 4f be bc
       -0.009810213 -0.010803163 -0.0091315415 -0.023231426
000350 c5 ac 51 bc 6f 7b c3 bc 7c 6c b1 bb cf 7e b1 39
       -0.012797539 -0.023862569 -0.0054145437 0.0003385455
000360 98 b4 0b 3d 51 44 9f bc cd cc 23 bd 4f e8 24 bd
       0.034107774 -0.019441755 -0.039990235 -0.04026061
000370 b4 14 34 3c 97 df c2 3c 9b 89 05 3d 37 8a 71 bc
       0.010991264 0.023788257 0.032601934 -0.014742426
000380 fe 72 55 bc 69 43 db bc 8e 76 38 bd e0 ee 33 bc
       -0.013027905 -0.026765542 -0.045034938 -0.010982245
000390 41 f3 17 bd a3 4f 3c ba d7 99 e6 bc 80 0d fc bc
       -0.03709722 -0.00071834977 -0.028149528 -0.030768156
0003a0 56 18 5b bd 7e 79 36 bd e0 e1 56 bc 6c 82 d1 3b
       -0.053490005 -0.044549458 -0.013115376 0.0063937213
0003b0 50 3c 0d 3d 5f f3 f3 bb b9 b4 35 bd b7 ac 7e bc
       0.034481347 -0.0074447836 -0.044361804 -0.015544108
0003c0 57 ad 0c bb 3c a2 ea bb 5f 81 41 bc 1d a5 cd 3c
       -0.0021465623 -0.007160453 -0.01181063 0.025103146
0003d0 4b bc f3 3c f6 19 04 3d a3 8a f9 3c a5 c2 71 3c
       0.029752871 0.03225132 0.030461615 0.0147558795
0003e0 29 e2 bf bb 03 e4 9a 3c b5 43 29 bd a3 7c c3 3c
       -0.005855818 0.018907553 -0.041324336 0.023863142
0003f0 fe d4 a8 bc 8d 32 5a bd e2 26 63 3c 00 79 c4 bc
       -0.020609375 -0.053270865 0.013864251 -0.023983479

action_model._discrete_distribution.branches.0.bias f4 [4]
000000 fb 79 9b 3c c7 07 9b bc e9 42 a1 bb 21 8f a1 bb
       0.018979063 -0.018924607 -0.0049213064 -0.0049303924
