unity_project_assets/ML Models/v0.4.1/CarMovement-Step50009.onnx (onnx, 93529 bytes, 6 tensors)

network_body._body_endoder.seq_layers.0.weight f4 [128, 39]
00000000: 2c67 5f3d 001c 5abd d1ac 253e 8992 013f
00000010: 58cd 3bbe 8c33 09be 64ae 023e 39ad db3c
00000020: 0377 8f3a d4ee 673e 19cd 253e 6a5b 7a3d
00000030: 13b2 7c3c 157b 63be 4c38 14be 6a5e 7bbe
00000040: 3973 1bbe 2781 6a3e 48ca 8e3c 5485 38bd
00000050: fd5e eabd accb 193e 562f a63c 4876 6a3e
00000060: 1513 2abb ec6b 543e 7c0e 233e d535 1fbe
00000070: d003 703e 1518 86be 101d 18be a885 b2bd
00000080: 1d0d 003e 82fe 25be c290 f93c 688b 26bc
00000090: 15df 053e 8ca5 c23d 6b6c d6bc 80bb 0b3f
000000a0: 52c1 073e b25f 563e b2d5 6a3e 4609 603e
000000b0: 1104 e73d 5d39 38be 3028 46be ce7b 3bbe
000000c0: 3c37 663d bf75 f9bd 7654 e9bb b200 0cbe
000000d0: 0d2a bcbe 8665 21be 2f99 a5be fc70 08be
000000e0: 3355 b63e f1f0 dabd 9c90 a23d 12dc 623e
000000f0: 122a 35bd 1968 313d 5822 703e b178 9b3e
00000100: c0b7 553d 6b76 84bd d3f6 063e 9412 1a3d
00000110: 787a ef3c f792 62bd d585 853d 143d 713d
00000120: b353 e63c 822d 113e 5099 853e c598 2e3e
00000130: 7ea1 fe3d aaa6 623d 8bf2 263e dc69 bcbd
00000140: cc5b 4dbd f613 a4bd 24f9 6fbe 8186 0abd
00000150: ce3d 86bd e492 2f3e dace 7c3c b58e 743c
00000160: e1ac 87be 1156 00be 756a aa3d 15e4 8d3d
00000170: 3dde 8d3e c1b6 ef3c 7beb 103d f882 b93e
00000180: b5fe f33d 9aa2 f33d 065f 1ebe 0a1c 8cbd
00000190: 006e 103d 0a6c 033e 43db 013e 8a79 25be
000001a0: 713d 513d 142f 77be 4daf 09bd a846 b13d
000001b0: 03d2 d53e c044 cbbd 2e37 123f 6d45 3c3e
000001c0: abb2 fd3d ef71 92be 93f9 6ebd a9e8 103e
000001d0: a7d0 86be 0fe5 8c3d 1fe7 11be e326 16bd
000001e0: 6dea c3bd c20d 9bbe a75e abbd 8a8d ccbe
000001f0: 5ed8 763d 6216 b23d aa97 aa3d f186 dcbd
00000200: 6db8 a1bd 1be9 65bd 41d2 603e 4495 36bd
00000210: 37e6 d7bd d8ac 61bc c5b3 4ebd 1a93 9b3e
00000220: 65b6 25be 8bc8 453e 9067 d93d 5c2c c83c
00000230: 0faa 22be 8e76 65be efed 383e 057e 0c3e
00000240: 857b 4c3d ef9e 033d 6275 cb3d 6fbb ac3e
00000250: 2932 7e3e 6857 473e 9e72 1c3e b55e 003e
00000260: a4df 913b 3930 583e cef2 f7bd 9e83 3bbe
00000270: fb0b 4cbe 0484 14bd a924 a53d cc8b 333e
00000280: c1b5 82be 6ec0 8bbe 87c4 a4be 7faf ec3a
00000290: 6879 bbbe bddd 77be 600d 0a3d f1fd bcbd
000002a0: c487 95bd fdff 57be 4aaf e3bc 144a a9bd
000002b0: ddba 9ebd d8ba d13e 3e4e 6a3d 057d 893e
000002c0: 83b2 22be 8bfe b53d b511 8abc fb7f 6fbd
000002d0: 6872 ad3d 8b71 4c3d 7503 babb ae98 b9bc
000002e0: a014 51be 1779 3e3e 6d0c a83e 1ea9 dd3d
000002f0: f451 d33e 2f39 443c cfc2 fd3d d9bf f63d
00000300: 9d50 9c3e cd96 523e ef39 3d3d d067 3e3d
00000310: e4d0 35bc 5c01 43be f0d6 fd3d 5416 543d
00000320: f676 af3d 834e b73c f796 d53d 7aeb 753e
00000330: 4508 cc3d 1cf2 3fbc 3b57 283e 514d 383e
00000340: baf7 5a3e 2241 0fbe 352d 1bbe 7cb2 783e
00000350: 5c2d d7be 8450 0f3d e5b1 0dbd 7e9f 9e3c
00000360: b5ad 4b3d da6f 753e 4600 5cbc 914f 9a3c
00000370: 3871 b33d 924e 543b 7ab4 0ebd 9c08 3cbe
00000380: 17fb 183e f3e2 883d ed45 c33d 19c4 05be
00000390: 8429 23bd d8e1 ddbd cd1e 3e3c d7d1 c6bc
000003a0: fe1c 87bd 3b0b 4abe 80a0 babe 56d3 89bd
000003b0: c209 443d 7ada f8bd 0397 afbd 3f44 6b3d
000003c0: 100a 55bd b76d a5bd 4b16 d0bd 6378 43bb
000003d0: 693d 4a3e 02ae 0dbd ac2d 423e 85fc 0fbe
000003e0: 0204 91bd 84e5 8ebd 8aa5 91be 543e 513d
000003f0: 5028 e93d 4071 8abe a66c 8abe f30e c23c
0.05454175 -0.05324936 0.16179205 0.5061422 -0.18340051 -0.1339857 0.12761837 0.026815997
0.0010945502 0.226497 0.1619152 0.061122335 0.015423316 -0.22214921 -0.144746 -0.24547735
-0.15180673 0.2290083 0.01743044 -0.045049027 -0.11443899 0.15019101 0.020286243 0.22896683
-0.0025951315 0.20744294 0.15923494 -0.15547879 0.23438954 -0.26190248 -0.14854836 -0.08716899
0.12505002 -0.16210368 0.030464534 -0.010165073 0.1307338 0.09504232 -0.026174745 0.5458298
0.1325734 0.20934942 0.22933081 0.21878538 0.112800725 -0.17990632 -0.19351268 -0.18308946
0.05620502 -0.121806614 -0.007120664 -0.1367214 -0.36750832 -0.15761384 -0.32343432 -0.1332435
0.35611877 -0.10690487 0.07937738 0.22154263 -0.044229575 0.043312166 0.23450601 0.30365518
0.05217719 -0.06467899 0.13180093 0.037615374 0.029233202 -0.055315938 0.06519667 0.05889614
0.028116083 0.14177516 0.2609353 0.17050464 0.12433146 0.055334724 0.1630346 -0.091998786
-0.050136372 -0.0801162 -0.23434883 -0.03381968 -0.06554757 0.17145878 0.015430177 0.014926602
-0.26499084 -0.12532832 0.08321086 0.06928269 0.27708617 0.029261949 0.03538082 0.36232734
0.11913816 0.11896248 -0.15465936 -0.068412855 0.035261154 0.12834182 0.12681298 -0.16159645
0.051083986 -0.24139053 -0.033614445 0.08656055 0.4176179 -0.099252224 0.5711545 0.18385859
0.12387594 -0.2860255 -0.05834348 0.14151253 -0.26331064 0.06879627 -0.14248322 -0.03665818
-0.095661975 -0.30283934 -0.08367663 -0.39951736 0.060264938 0.086956754 0.08329709 -0.107679255
-0.078965046 -0.05613051 0.21955206 -0.044575945 -0.10541957 -0.013774119 -0.05046441 0.30385667
-0.16182859 0.19314782 0.10615456 0.024435215 -0.15885185 -0.22408506 0.18059514 0.13719948
0.049922485 0.032133993 0.09934498 0.3373675 0.24823822 0.19466937 0.15278098 0.12536128
0.004451709 0.21112145 -0.12106858 -0.18311927 -0.19926445 -0.036258712 0.08063633 0.17533797
-0.25529292 -0.2729525 -0.32181188 0.0018057673 -0.36616063 -0.2420568 0.03370416 -0.09228123
-0.07301286 -0.21093746 -0.027793545 -0.082660824 -0.07750485 0.40962863 0.057203524 0.26853195
-0.1588841 0.08886441 -0.016854146 -0.05847166 0.08469087 0.04991297 -0.0056766816 -0.022655811
-0.20418024 0.1860088 0.3282198 0.10823272 0.41273463 0.011976524 0.123906724 0.12048311
0.30530253 0.20565338 0.046197828 0.046485722 -0.011097167 -0.19043487 0.12394512 0.051779106
0.08567612 0.022376304 0.10429185 0.24015608 0.09962515 -0.011715438 0.16439526 0.17998244
0.21383563 -0.1398969 -0.15153964 0.24286836 -0.42026794 0.034988895 -0.03459348 0.019363161
0.049726207 0.23968449 -0.0134278 0.018836768 0.08761829 0.0032395464 -0.034840085 -0.18362659
0.14939533 0.06683912 0.09534822 -0.13063087 -0.039834514 -0.10834092 0.011604023 -0.024269981
-0.06597327 -0.19730847 -0.36450577 -0.06729762 0.04786087 -0.12151046 -0.08573725 0.05743813
-0.05201155 -0.08077567 -0.10160502 -0.0029826395 0.19749989 -0.034589775 0.18962735 -0.14061172
-0.070808426 -0.069773704 -0.2844661 0.05108483 0.11384642 -0.27039528 -0.27036017 0.023688769

network_body._body_endoder.seq_layers.0.bias f4 [128]
00000000: 9ab9 f33c 0874 c03c 8f5c 0c3c 6c0c 623c
00000010: b0b3 5e3c 31db 88bc caa7 92bd 8f19 0e3c
00000020: 9b9b b73c 96bc 913c f75d d23c 9db0 b83c
00000030: bf91 893d aebf 5e3b e11c 2f3d c579 523d
00000040: 662d a53c c2a5 fbbc 5d12 003d d7b8 b63c
00000050: a8e0 fd3c 0e7a 613d fa5d aebb 5b55 443d
00000060: f53a 58bc abb8 1d3d e008 043d fe4e 623d
00000070: d7f6 333d c1cd 08bd c886 463c 7751 32bd
00000080: d031 503d ab35 873c f088 52bb 7676 543d
00000090: 5484 5d3a 29ec 213d a81a 4e3c 0bbd 583c
000000a0: 3f20 0d3d ab7f 803c b18f 303d eb8a 6c3c
000000b0: c7a7 273d 7d57 b5bc 68b4 ee3c 1c96 8a3c
000000c0: f3c7 693c 5885 223b 0892 8b3c 63bb d73c
000000d0: a6c6 563d 9fe4 07bc a979 7a3d 5e30 cbbc
000000e0: f2cf c63c c4df 473c 3fa7 41bc 4a01 303c
000000f0: f06b ee3c 0ea2 163d 8dbf 3b3c 83db 273d
00000100: 9d9f fc3c aea0 423d d165 273d f772 0c3d
00000110: c05e 253d 4667 9e3c e3d9 613c d6b9 c13d
00000120: 8293 793d f6a7 383d 7629 063d c65c d7bc
00000130: cd5f 603d 8d8a 893d 7df7 0f3d a064 2f3d
00000140: 6a6d 133d d0ce 1d3d 2174 193d a219 3c3b
00000150: b4bb 5fbc acb6 c93c 5bcc 183d 1379 7b3c
00000160: 0240 383c c933 8a3c de36 4b3d ba51 0b3d
00000170: b83d 6f3d 63d5 d13c 528e b7bc eb5b 8c3b
00000180: eb2f b73c 5f2b 9abc 936f 513d 5a76 df3c
00000190: cd9d 383d 199a b0bd c282 f23c 72ee 803c
000001a0: a3d3 c03b b343 453d 5030 863d efaf 9abc
000001b0: 8651 263d 53fa ec3c 490b 093d 08d3 353d
000001c0: d16b 01bc 3293 2c3d 59eb 54bc 5592 21bd
000001d0: abc0 abbc 775b 8e3b 9d00 af3c 9bcd 493d
000001e0: 08e1 e63c 2f9b b73c 5ddb 2a3d ea73 1b3d
000001f0: 8d30 84bc 011f 953b 76a7 503d a002 533c
0.029751588 0.023492828 0.00856699 0.013796907 0.0135926455 -0.016706081 -0.071609095 0.008673086
0.022413066 0.01779012 0.025679572 0.022545153 0.06717252 0.0033988762 0.04275215 0.05138566
0.02016325 -0.030718688 0.031267513 0.022304935 0.030990914 0.05504804 -0.0053212615 0.047932964
-0.01319765 0.03850619 0.032235026 0.055251114 0.043936577 -0.033399347 0.012117095 -0.043534722
0.050828755 0.016505083 -0.0032125078 0.051870786 0.00084501994 0.03953186 0.0125795975 0.013228665
0.03445458 0.015685877 0.043105785 0.0144374175 0.04093149 -0.022136444 0.029138759 0.01691728
0.014268863 0.0024798717 0.017037407 0.02633447 0.05243554 -0.008294254 0.06115118 -0.024803337
0.024269078 0.012199346 -0.01181966 0.010742495 0.029104203 0.03677564 0.0114592435 0.040980827
0.030837828 0.047516517 0.040868584 0.034289327 0.040373564 0.019336354 0.013784858 0.094592735
0.06093169 0.045082055 0.032754384 -0.026289355 0.054778863 0.067158796 0.035148133 0.042820573
0.035993017 0.03852731 0.037464265 0.0028701802 -0.013655592 0.024623238 0.037304264 0.015348691
0.011245729 0.016870396 0.049612872 0.034013487 0.05840847 0.025614446 -0.02240673 0.0042834184
0.022361716 -0.01881951 0.051131796 0.027278114 0.045072366 -0.08623142 0.029603366 0.0157387
0.005884604 0.048160266 0.06552184 -0.01888272 0.04060509 0.028927958 0.033458028 0.04439071
-0.007899241 0.042132564 -0.012995564 -0.039446194 -0.020965895 0.0043443996 0.021362597 0.049268346
0.028183475 0.022412864 0.041713107 0.03795234 -0.016136432 0.004550815 0.050940953 0.012879044

network_body._body_endoder.seq_layers.2.weight f4 [128, 128]
00000000: b296 ec3d b254 6b3e 841c 12be 4e83 3fbe
00000010: c515 2c3d 44f8 09bd c21a 323d b4c7 3ebe
00000020: d627 2bbd 11a9 ec3c 76ec 0c3d 0ecf 2ebd
00000030: 006f 0e3d 2838 9dbe dd93 553d 673b b93d
00000040: 1185 b13d b959 ccbc 817d 253e b9e3 15be
00000050: a5f2 823e 0bd3 573e 4078 463d 1315 58bb
00000060: 4355 b93d 13eb b53d d2d6 5a3d 22a3 533e
00000070: 8ea1 e2bd fcc3 82bd e150 4f3d 7cba b33d
00000080: c887 2abd 12eb 3bbd b8cb bbbb 7364 d8bd
00000090: 9f05 0abe f353 1b3e 6c5c 75bd 8718 283d
000000a0: a6bc f3bd 212d ccbd a368 57bd 9588 b1bd
000000b0: 5636 04bd 8903 dbbd 0f4d b6bc 2f95 8cbd
000000c0: ec46 813d 48b9 d3bb 1065 0ebe 5f9d 243e
000000d0: b779 4dbc 12df 46be e5e2 9e3d 7aaa 19bd
000000e0: 3985 8b3d e6fe 1abd 52fd 08bd e3cb 093d
000000f0: 2403 67bd c241 f43d ca40 e7bc 981e 3bbd
00000100: a451 aa3d 8ee2 0dbd 19a8 2a3e 116b 9abd
00000110: 1dff 633e 5e58 483d 2b83 c4bd 7698 c1bd
00000120: 0dbe 873e 107a 903e e478 fdbd 009c 59be
00000130: 49be af3d 47ab 76bd 0202 ec3c 3bbb 193d
00000140: c39e 1fbd 97a5 ba3b 0a68 ba3d 1d5a 45be
00000150: 0eb3 3f3d df85 8cbe e0c1 033d 5dc6 46bd
00000160: 5816 febd 1d04 153d fe85 0c3c 0abd cfbd
00000170: 1894 dcbd 9a60 78be cd95 103d a806 42bc
00000180: 9aa4 13be d6e8 a3bd 6c02 763d acca d2bd
00000190: da34 233e 4e25 5bbd 6a69 44bd 344f 30be
000001a0: c11c 52be 9dae 863e 90eb 48be ae0a 9dbd
000001b0: f79a 073e 0376 b3bc e20f be3d 97e8 88be
000001c0: e99e 8abd ee39 d2bd eef6 f83c 2e7a 6f3d
000001d0: 561d 90bd dae9 20bd 82b0 ab3d 6192 f63d
000001e0: cdeb efbd 7db7 1e3d e688 883e 296a b7bc
000001f0: a3a9 8a3d d448 d4bd 80bb 563e 137b 9fbd
00000200: 761f 903e f872 913d 39f8 01bd bf03 6dbe
00000210: 6829 dbbc 1804 dbbc bd1a fdbc 8da2 d0bd
00000220: cc10 83bd 811f 0e3e c8ca 903d ab98 3ebe
00000230: e19b d23d 8dbc d43d 9fa0 d43c 1eee 7a3a
00000240: 7d89 bd3d a8f7 94bb 4ca0 053e 8e61 2bbe
00000250: 65df 1d3e d4fd 29be 212f 793d 7fbd 81bd
00000260: 9b7a 1cbd 5097 f33c 51b4 913e f9d7 183d
00000270: 6620 9fbe cc81 793d ea88 7b3d ccca 893d
00000280: 6533 5bbd 930b 54be 524e 20be 84c9 46be
00000290: facd d73d 9e7f 743c 0f02 14be 2e15 6abd
000002a0: a10b 24be fe0f 083e 38e6 ebba 9958 5dbd
000002b0: f733 4c3e ffbd 06bc 67ff 063e e290 183e
000002c0: 4773 ea3c 9572 923c 45af 03be b4a2 2dbd
000002d0: b2c3 94bc 50f7 0bbe 91fe 433e aace e3bd
000002e0: 215d 96bc 6b53 70be bacc a3bd 976e ec3d
000002f0: 6c35 aebb c497 0b3e fadb 7b3e 769e f6bc
00000300: 6693 68bd b407 04be 8b68 8d3d eb8c ef3d
00000310: fa23 763e 858a c7bc 7997 c53c 2456 013e
00000320: b95d b63d 66a4 453e a0db a23d cb65 e83d
00000330: 9d93 083d 5ed6 b3bc 90b7 7c3c 1b0d 683d
00000340: 61cb 483d b613 133e f190 4e3e 2825 16be
00000350: 8d0e 35be fca4 55be 58e8 db3d 3daf 21bd
00000360: f149 95bc 8f3d 1ebe 91e2 7a3c c902 b0bd
00000370: 0a8a 153e 92ca b1bd c374 5ebd c2fd 483d
00000380: ecaa 8dbe b226 6abd 19fb c73d ba9b 14bd
00000390: 6e6d 263e 62b5 b03c 0380 88bd 0a7d 44be
000003a0: 9ccf 04be be14 5a3e d3f3 cebd eea5 92be
000003b0: 027e 843e 0c55 ef3c fecf 54be 96b8 c2bd
000003c0: ae71 b5bd 2cdd 3ebc 79b6 313e 908f d63d
000003d0: e897 f2bb eda4 f13b cf43 e5bd 3e01 343c
000003e0: 2bc3 38bd ebf6 d53d ad7b 873d 1f4e 96bc
000003f0: ba51 68be d1d1 96be af31 8ebd 3e92 1ebe
0.1155218 0.22981527 -0.1426869 -0.18702433 0.04201295 -0.03368403 0.04348255 -0.18630868
-0.041786037 0.02888921 0.034405194 -0.04267793 0.034773827 -0.30706906 0.052142967 0.09044533
0.086679585 -0.024945127 0.16161157 -0.1463765 0.25575748 0.210766 0.048454523 -0.0032971546
0.090494655 0.088827275 0.053427525 0.20667699 -0.1106597 -0.06385037 0.05061424 0.087758034
-0.041633397 -0.045878477 -0.0057310723 -0.10566034 -0.13478707 0.15168743 -0.059902593 0.041039016
-0.11901216 -0.09969545 -0.052590024 -0.08668629 -0.03227838 -0.10694034 -0.022253541 -0.06864392
0.063123554 -0.006461296 -0.1390574 0.16075657 -0.012541226 -0.19421032 0.077581204 -0.037516095
0.068125196 -0.037840746 -0.03344471 0.033641707 -0.05639948 0.11926605 -0.028229136 -0.045683473
0.08316353 -0.034639888 0.16665687 -0.075399525 0.22265287 0.0489124 -0.09595331 -0.09452908
0.26512185 0.28218126 -0.12376574 -0.21250916 0.08581216 -0.060221937 0.028809551 0.037532073
-0.038969766 0.0056960094 0.09101875 -0.19272657 0.04680162 -0.27445886 0.032167315 -0.048529018
-0.124066055 0.036380876 0.008576868 -0.10143478 -0.10770434 -0.242556 0.03529911 -0.011842407
-0.1441826 -0.08003394 0.060060903 -0.10292563 0.1593813 -0.053502373 -0.047952093 -0.17217714
-0.20518781 0.26305094 -0.1962111 -0.076680526 0.13242708 -0.021906858 0.09280373 -0.26739952
-0.06768591 -0.102649555 0.030391183 0.05846613 -0.070368454 -0.03928552 0.083832756 0.12039638
-0.11714897 0.038749207 0.26666945 -0.022389488 0.06770637 -0.10365453 0.20969963 -0.077871464
0.28149003 0.07102007 -0.031730864 -0.2314596 -0.026753142 -0.02673535 -0.030896539 -0.10187254
-0.06399688 0.13879205 0.070699275 -0.18612926 0.10283638 0.10387526 0.025955496 0.00095722254
0.092547394 -0.0045461245 0.1304943 -0.16736433 0.1541725 -0.16600734 0.06083596 -0.06334972
-0.038202863 0.029735237 0.28457883 0.037315343 -0.31079406 0.0609148 0.06140987 0.067281336
-0.05351581 -0.2070754 -0.15654877 -0.1941281 0.10537334 0.014923004 -0.1445391 -0.057149105
-0.16020061 0.1328735 -0.0017997688 -0.05403957 0.19941698 -0.00822401 0.13183366 0.14899018
0.028619422 0.017876903 -0.12859829 -0.042391494 -0.018159721 -0.13668561 0.19140078 -0.111234024
-0.018354954 -0.23469321 -0.07998033 0.11544531 -0.005316427 0.13632113 0.24595633 -0.030104857
-0.056781195 -0.12893564 0.069047056 0.116968 0.24037161 -0.024358043 0.02412008 0.12630516
0.08904595 0.19300994 0.079520464 0.113475405 0.0333439 -0.021952804 0.015424624 0.056653123
0.049022082 0.14362988 0.20172478 -0.14662611 -0.17681332 -0.20863718 0.107376754 -0.03947376
-0.018223735 -0.1545317 0.015312807 -0.08594281 0.14603439 -0.08681215 -0.05431057 0.049070127
-0.27669466 -0.05716581 0.0976469 -0.036281325 0.16252682 0.021570865 -0.06665041 -0.19188324
-0.12969822 0.21296975 -0.101050995 -0.2864222 0.25877386 0.029215358 -0.20782468 -0.09507863
-0.08859573 -0.011649411 0.17354764 0.10476601 -0.0074033625 0.007374397 -0.11194574 0.010986624
-0.045108 0.104474865 0.06615386 -0.018347798 -0.22687426 -0.29456952 -0.0694307 -0.15485474

network_body._body_endoder.seq_layers.2.bias f4 [128]
00000000: b3f7 483d 5d04 053d ad1b d13c f536 123d
00000010: a2cd 6f3c 132d b53c fe02 113c 6497 d23c
00000020: ebba 133d 89cc 503d 602c 103d 1c87 4d3d
00000030: 1f4b 033d b130 b83c 37f1 263d 3c9e fa3c
00000040: 78a8 2e3d 0e4d 633c 7256 2a3d 245e f13c
00000050: d9ec 0f3d 1bfa 063d 1116 d93c d0d2 ea3c
00000060: 5382 053d f780 67bb 7921 d93c 15e7 ef3c
00000070: ada7 0d3d bc76 c63c a7db 3d3d 06a5 053d
00000080: 048a 243d 8c84 9b3c 1401 263d 26ac db3c
00000090: c605 b03c be01 043d 6da4 833c b184 4f3d
000000a0: b303 043d ee96 d23c 272c 543c a2ff 4b3d
000000b0: 765d 0d3d 05cf 3b3d 84e4 d63c caa5 df3c
000000c0: db15 2b3d be1a f93c 139e af3c 8e11 0f3d
000000d0: b9bb a83c 9b0c fb3c 008e 103d 3005 013d
000000e0: 4768 fe3c 2a10 d83c cf8a 053d 38ba 1c3d
000000f0: bed1 5d3c 3dd7 f73c b092 de3c d0df c83c
00000100: a6d1 153d 841e 003d 50c0 ca3c 2103 973c
00000110: 4608 e33c 265f d93c 77e6 873c 657e de3c
00000120: 1194 1a3d 9db1 513d cde4 4d3c 7013 a63c
00000130: 3634 163d 737f 2a3d cd88 433d d7ce ef3c
00000140: 5150 d93c dc44 0c3d cbda 413d a76e 293d
00000150: 54bd 8e3c c6a8 003d 1cae bf3c 34b0 c43c
00000160: f44f f83c ecab 023d 2c2c 873c dd36 ed3c
00000170: f2d9 0f3d 8eab b03c 9dde 093d 2b25 023d
00000180: 9976 283d b208 ed3c e77c 683d 6e0b 1a3d
00000190: 6110 243d 2779 203d bb9b e53c 36cc 333d
000001a0: fad8 153d cb08 c83c f7f5 333d b61d 073d
000001b0: c111 dd3c 4c78 c83c c942 f63c 12ce bd3c
000001c0: d08a 913c 5895 dd3c 5360 f63c 796d 0a3c
000001d0: 5051 ea3c d021 1c3d f2bc 433d fbfb 2d3d
000001e0: 061e 8b3c a6ef 033d b7eb f73c 6c4f 0e3d
000001f0: bdc8 483d b498 ec3c e809 003d ec4b dc3c
0.04906435 0.032474864 0.025525892 0.035696942 0.014636429 0.02211622 0.008850811 0.025706954
0.03606693 0.05097631 0.03519857 0.05017768 0.032054063 0.022484155 0.040757384 0.03059303
0.042641133 0.013873352 0.041586347 0.029463835 0.035137985 0.032953363 0.02649978 0.028664976
0.03259499 -0.0035324672 0.026505219 0.029284993 0.034583736 0.024226539 0.046352055 0.03262808
0.040170684 0.018984102 0.040528372 0.026815485 0.021487128 0.032228224 0.016069615 0.050663654
0.03223009 0.025706735 0.01294998 0.049804337 0.03451296 0.045851726 0.026232012 0.027300734
0.04176889 0.03040826 0.02143768 0.03492885 0.020597326 0.03064566 0.03529167 0.031499088
0.031055583 0.026374895 0.03260308 0.03826353 0.013538776 0.030254 0.027169555 0.024520785
0.03657689 0.031279102 0.024749905 0.01843411 0.027713906 0.026534628 0.016589386 0.027159879
0.037738863 0.051194776 0.012566757 0.02027294 0.036670886 0.04162545 0.047737885 0.029273434
0.026527556 0.034245357 0.047327798 0.041365292 0.017424263 0.031410955 0.023398452 0.024009801
0.030311562 0.03190224 0.016500555 0.028956825 0.03511996 0.021566179 0.033659566 0.031773727
0.04112873 0.02893481 0.05675974 0.037608556 0.040054683 0.03917804 0.02802836 0.043895923
0.036583878 0.024418255 0.043935742 0.03298732 0.026986005 0.024471425 0.030061143 0.023169551
0.017766386 0.027048752 0.030075228 0.008448952 0.028603226 0.038118184 0.047787614 0.042476635
0.01698209 0.03221097 0.030263765 0.03474371 0.049019564 0.028881408 0.031259447 0.026891671

action_model._discrete_distribution.branches.0.weight f4 [4, 128]
00000000: 572b 743d 07e8 7f3d 95d9 dabd 1d89 4cbd
00000010: 84c3 b23d 3798 b83d 2f20 46bd cea6 9abd
00000020: bd91 66bd 4aa6 99bd c126 883d a039 febd
00000030: d05e ac3d fe36 783d b785 adbd d173 8e3d
00000040: df38 7dbd 7462 1dbd 4f21 733d d1ce adbd
00000050: 01cf 533d faf6 bfbd f619 35bc e27c 63bd
00000060: ee77 a13d 95bd 25bd c0eb 493d 9b18 663d
00000070: 1f87 a2bd bbd1 1b3d e887 eabc 4f22 b93d
00000080: 450f 443d 638e 94bd e3ad e83c b44c d8bd
00000090: ce58 0f3d 2059 963d 4335 4dbd d2a2 cbbd
000000a0: dc16 c03d 439f 5c3d 79b9 54bd f158 3d3d
000000b0: 196f 383d cb90 d5bd 37fc 64bd bbb2 763d
000000c0: fe51 6c3d fa11 98bc 5c72 c5bd 8714 6a3d
000000d0: 4c27 1e3d 7446 a6bd f3a1 ae3d 40c0 34bd
000000e0: 7644 163d 1274 933d e21d 943d 896b b03d
000000f0: c2c4 a9bd dd0e a43d 17c8 69bd 7bf2 8c3d
00000100: 2cf8 94bd f8e2 993d 08e7 25bd cb28 aa3d
00000110: 4440 61bd f784 4d3d 6809 9fbd ec32 45bc
00000120: d50a bfbd 7ef9 153d 152e ef3d caad c9bc
00000130: 6076 1bbd b33b 393d 014e 693d 64d0 823d
00000140: 61fb 553d e87b 8c3d eddf 503d 1213 d3bd
00000150: 2da7 21bd f2e6 a53d 2bfe 8dbd 0e32 b13b
00000160: 6733 273d 330b 82bd 6ca2 9fbc d01c 8d3d
00000170: 7cda d53c 1c71 273d de3d c8bd 3188 963d
00000180: 19e7 873c cfe0 403d 599b e43c 6abb b9bd
00000190: 4fdc b93d 2555 86bd 8470 193d 351d c1bd
000001a0: ea4d 793d c8ad 97bd 8537 b4bd 583f 88bd
000001b0: 1563 463d 5e5e 84bd 1fbf 3abd 542c d03c
000001c0: 2882 b23d 36cc 913d af0a 9e3d bd6e 4abd
000001d0: 6591 cebd 60c0 243d 7a02 94bd ab8b dcba
000001e0: af58 39bd a0fa 59bc 0248 673d 0052 cdbd
000001f0: 7db2 d1bd 0784 833d 4bed 813d 7e8d 623d
00000200: 5147 3abd 01d2 1abd 67af 6f3d c4ea ed3c
00000210: 5fe6 bdbc 60e7 c9bc f3e9 393d eced 383d
00000220: 5713 3b3d 583d 263d 167e 1fbd de46 4d3d
00000230: 9662 fcbc c63a e6bc d28f 563d 53b0 3dbd
00000240: 31e5 0a3d ec58 1b3d a6f7 edbc 1ee2 823d
00000250: f0b2 ffbc b418 573d a41c 103d 7507 143d
00000260: fea6 19bd 0b68 0e3d fe79 01bd 1330 c3bc
00000270: f1c2 773d bf36 b1bc f2aa 353c 9b29 67bd
00000280: a1b5 17bd 9c84 1a3d 8848 9dbc e18b 613d
00000290: 2b5f dcbc 1c2a 14bd 4149 e43c 019b fa3c
000002a0: eea7 15bd 3fbb 27bc 1e46 243d af45 1abd
000002b0: 0dd2 04bd bff3 6c3d 5572 263d cd7f febc
000002c0: dafa 06bd 0666 503a 7d89 393d aa52 f3bc
000002d0: 82d9 fbbc 5f7d 253d 8c3d 69bd 7d58 be3c
000002e0: 1dd7 f2bc a6ec debc 423b 58bd 9c03 38bd
000002f0: 9507 703d 6a96 29bd a768 523d eaf4 02bd
00000300: 6d93 1b3d 91cf 3bbd f71f b53c b656 e1bc
00000310: be7b 0d3d f9f1 e4bc 2851 4b3d 6862 803b
00000320: 7711 2b3d 26ba d8bc 628a 5fbc 8610 f03c
00000330: 8f75 d4bb e612 bbbc 05a9 1abd 50c9 c5bc
00000340: aad8 a6bc 5610 35bd f2fa 14bd 1dbb 273d
00000350: 0706 103d af29 38bd 7894 0c3d aa8b 363c
00000360: 4cb7 03bc cdf0 2c3d 2c6c 783c bf57 5cbd
00000370: e18c babc b926 2dbd d7bb 373d 669c 1fbd
00000380: c331 b5bc b1a7 01bd 5bda f2bc 0f40 293d
00000390: e8c3 7abd 681b b63c 73dc 19bd f693 493c
000003a0: 46ba 26bd b1cc 4b3d 5082 083d 1b44 fc3c
000003b0: ab67 b9bc 923f e23c de4d 113d 3dba e1bc
000003c0: 3ea7 07bd 7f4e 08bd 9f8f 05bd fb5d 1f3d
000003d0: 2e93 463d 710a d7bc 62e7 fc3c 5d19 82bb
000003e0: 6b54 1b3d 5ba6 833c 0b76 c7bc b1cb 493d
000003f0: 48b8 213d a699 fbbc 6873 0ebd 9224 6bbd
0.059611645 0.062477138 -0.10686032 -0.04993545 0.08728698 0.09013408 -0.048370536 -0.07551347
-0.05629133 -0.0750242 0.06648017 -0.12413335 0.084165215 0.06059932 -0.0847277 0.06955684
-0.061821815 -0.03842397 0.059357937 -0.08486713 0.051711086 -0.09373279 -0.011053553 -0.05553902
0.07884203 -0.040464003 0.049297094 0.05617581 -0.079359286 0.03804181 -0.028629258 0.09039747
0.047866125 -0.072537206 0.028403228 -0.10561505 0.0349968 0.07341218 -0.050099622 -0.09943165
0.0937936 0.05386282 -0.051934693 0.0462274 0.045027826 -0.10428008 -0.055904593 0.060229044
0.05769538 -0.01856326 -0.09640953 0.057148483 0.038611695 -0.081189066 0.08526983 -0.044128656
0.036686383 0.07199873 0.07232262 0.08614261 -0.08289482 0.080106474 -0.057075586 0.06882187
-0.072738975 0.07513994 -0.04050353 0.08308562 -0.05499293 0.050175633 -0.07765466 -0.0120360665
-0.09328238 0.036614887 0.11678711 -0.024619002 -0.037954688 0.04522295 0.056959156 0.063874036
0.052241687 0.06859571 0.050994802 -0.10306372 -0.039466072 0.0810069 -0.06933244 0.0054075783
0.040820505 -0.06349792 -0.019486628 0.06890261 0.026105158 0.040879354 -0.09777425 0.07350195
0.016589688 0.047089394 0.027906107 -0.090689495 0.09075224 -0.06559209 0.03746082 -0.09429399
0.06086532 -0.07406193 -0.08799652 -0.06652707 0.048434336 -0.064633116 -0.045592424 0.025411762
0.087162316 0.07119028 0.077168815 -0.049422015 -0.100863256 0.040222526 -0.07227035 -0.0016826292
-0.04525059 -0.013304383 0.056465156 -0.10025406 -0.10239122 0.064216666 0.06344088 0.05531072
-0.04547817 -0.03779793 0.058516886 0.029042609 -0.023181139 -0.024646461 0.045389127 0.045148775
0.04567274 0.040585846 -0.038938604 0.050116412 -0.030808728 -0.028104197 0.05238325 -0.046310734
0.03390998 0.0379266 -0.029048752 0.06390785 -0.031213254 0.052513793 0.035183564 0.036139924
-0.03751277 0.03476719 -0.03161048 -0.023826635 0.060488645 -0.02163255 0.01108812 -0.056436162
-0.03703845 0.037724122 -0.019199625 0.05506504 -0.026900848 -0.03617297 0.027866961 0.03059149
-0.036537103 -0.010237514 0.04010593 -0.03766411 -0.032426883 0.057849642 0.04063638 -0.0310668
-0.032954074 0.0007949773 0.045297135 -0.029702503 -0.030743364 0.040402766 -0.05694346 0.023235554
-0.02964359 -0.027212452 -0.052790888 -0.044925317 0.05860098 -0.04140321 0.051369336 -0.03197185
0.037982393 -0.045852248 0.022109969 -0.027507167 0.034541838 -0.027947413 0.049637944 0.003917981
0.041764703 -0.02645595 -0.013643833 0.029304754 -0.0064837406 -0.02283616 -0.037758846 -0.024143845
-0.020366985 -0.044205032 -0.036372133 0.04094993 0.035161998 -0.044961628 0.03432128 0.011141697
-0.008039307 0.042221833 0.015162509 -0.05379462 -0.022772254 -0.042273257 0.044856872 -0.038967513
-0.022118455 -0.031654064 -0.029645136 0.041320857 -0.061221987 0.022229865 -0.037563752 0.012303343
-0.040704988 0.049755756 0.0333274 0.030794194 -0.02263244 0.027618203 0.03547465 -0.027554626
-0.03311848 -0.033277985 -0.03260767 0.038907986 0.048480205 -0.026250096 0.03087205 -0.0039703087
0.037922304 0.016070535 -0.02434828 0.04926652 0.039482385 -0.030712914 -0.03477803 -0.057407923

action_model._discrete_distribution.branches.0.bias f4 [4]
00000000: 1986 203c 5b8f 52bc 9e73 693c bf17 363c
0.009797596 -0.012851561 0.014248757 0.01111406
