unity_project_assets/ML Models/v0.4.2/CarMovement-500014.onnx (onnx, 93529 bytes, 6 tensors)

network_body._body_endoder.seq_layers.0.weight f4 [128, 39]
00000000: 984b b13d 152e a9be 91cd a53d 1634 d13e
00000010: 171c 3e3d ab4f 5dbe f3de adbe 1267 b7bd
00000020: e937 bfbe 174c adbe 064b 2cbd 037e d8bd
00000030: 6e3b 1ebe 12ec 613d 2e6c cebd c2df fb3c
00000040: 669b fcbd d8be eb3d f4fa 853e 43de ad3e
00000050: 9bc2 283e 1c26 cabe fecd e93a da7c 4d3d
00000060: faf3 b53d eb92 85be 693c 7abd 2305 97be
00000070: ed62 db3d 0dd9 26be f560 f8bd 39cc c5bc
00000080: 9892 1c3d fe45 aebd 26ff 86be 2cc0 743d
00000090: 5c13 84be 6ac8 153f ef56 863d 2482 d5bd
000000a0: 8ce7 f1bd 0580 3a3c 3470 653d 9b4e 31be
000000b0: 8990 bdbe 5228 313e f9bc 50bd 24af 9dbe
000000c0: f727 5abd b84b 883c 3c5c 3fbd da25 b9be
000000d0: 0af4 2cb6 de65 1f3c e815 13bd c160 0f3e
000000e0: aad4 3f3d f6e9 b43c 4b64 5d3e a06d 193e
000000f0: 24b6 113c 4a50 a0bd bb57 89bd fc62 16bc
00000100: 49e5 9dbd 1bef 20be bbc9 9bbe 41e9 f6bd
00000110: 2355 b73d c396 88be b11a 213e ae9b 82be
00000120: ef3a a13d 51b8 5f3d c578 083d 5fb0 153e
00000130: 9ac3 1bbd 99d6 a83c d68d 63be 8946 403e
00000140: 604a 20be 7ec6 ecbd e372 c6be 8273 71be
00000150: 5d3e 6fbd 411a 9e3d 41d7 1e3e 6685 b43d
00000160: 69e5 0a3e 5e59 b5bd 28fa 263e d4c7 633e
00000170: 3cbb ac3d 5d68 653e 473d 8c3e a07f ab3e
00000180: fbbb 09be 88f4 843e 8580 3a3e 5157 82bb
00000190: 4ad6 e13d 1cb8 7d3e b2c6 a63d 9d73 073e
000001a0: 15d9 1e3e 6d46 a13d 30de 143e b314 29bd
000001b0: d69f 5f3d caef 3c3e f901 25bd 8267 39be
000001c0: fef4 0e3d 16a4 38be 98a4 093e e191 7fbe
000001d0: 0339 9fbe 474a e43d f60c 843c 1ec4 893e
000001e0: 9e63 a53e e291 b53d dbc1 b5bd fe31 edbd
000001f0: 5922 95be 4bfd eabc 4ae0 143d 73e6 78bd
00000200: d7df bcbd 0630 5fbe 5e48 86bd 4c53 d83d
00000210: d012 8cbd df88 643d 3935 2bbd 70ea ccbd
00000220: bea9 39be d0b6 1cbe 2c87 123e a3e8 1abe
00000230: c751 503d 5b2f 20be 28a7 adbd b727 833d
00000240: bf2f 68be 40bb 63bd b3fa 0bbe 1794 e0bc
00000250: 88eb 28be e15e 1b3e 0261 2b3e 8ab4 ecbc
00000260: 156e a5be 8920 5cbc 5c5e 7f3e c696 e23d
00000270: 12ea 8d3e e746 9fbd 5ffc 6e3d c6a3 ed3d
00000280: 505e 873e aea6 96bd 371e 52bd 4808 3fbe
00000290: 77c4 13bd 5134 223e ac79 9dbc 1513 593d
000002a0: 1fc3 f13c d9eb 4cbd 4beb 0abe 006f 82bd
000002b0: f591 58be ea0b 1bbd e5de 8a3e c265 4abe
000002c0: 6da3 08bd e123 0e3d cfbd 14bd 6fa4 b8bc
000002d0: 411b 473e d438 a0bc 9cc3 b63d ea9a 1b3e
000002e0: 26e7 293e a67a 8dbc 4065 0ebe 3af3 07be
000002f0: 66f7 debe f986 a4bd 7bd5 e2bd 198f 40bd
00000300: 2090 92be ae5d 063e e164 da3d 93cf f7bd
00000310: 4cae 27be 730a 913d 52d2 833d 225e 92bc
00000320: cf9e 95bd 8aac b33e 7fc5 08be 1cc5 fa3d
00000330: 071a 2d3e 26a9 18bd f6f0 af3e 8fab 9ebc
00000340: 26a5 c2bd 93b9 9ebd 684a e6bd d7d5 7abe
00000350: 020d ebbc d653 71bd b08d 2b3e 796e 3fbe
00000360: 79bd b4bc 4696 15be 036b 5a3e afe8 cb3d
00000370: bd0b 0abe 25ef d43d 9917 963e 0f28 6cbd
00000380: fb0c 773e 440c 7d3d 1005 41be ccb8 433e
00000390: faca b5be c196 64bd e328 f9be 7c7e 7bbe
000003a0: e488 94be 8992 b0bd a5f7 173d 0212 21be
000003b0: fbbe 7a3e 2eb1 a23e c7e4 ad3e 9d58 573d
000003c0: cefc 683e 0fa1 05be 006b 363d ae89 983d
000003d0: 3155 923d 7724 3f3d 3e4d 4bbe e196 a03d
000003e0: da74 fbbd 7bf2 18be d22f e53d 80ad 3c3d
000003f0: def6 2dbe fec5 c73b 5559 463e df83 c3bc
0.086569965 -0.3304297 0.08095849 0.4086005 0.046413507 -0.21612422 -0.3395916 -0.08955206
-0.37347344 -0.33847114 -0.042063735 -0.1057091 -0.15452358 0.055156775 -0.100792274 0.030746344
-0.123343274 0.1151101 0.26168025 0.33958635 0.16480486 -0.394822 0.001783788 0.050167896
0.088844255 -0.26088652 -0.061092768 -0.29496107 0.10712228 -0.16293736 -0.12127868 -0.024145233
0.03822574 -0.08509444 -0.26366538 0.059753582 -0.2579602 0.5850893 0.0655955 -0.10425213
-0.11811742 0.011383061 0.05601521 -0.17315142 -0.37024334 0.17300537 -0.05096147 -0.30797684
-0.05326077 0.016637668 -0.04671882 -0.3616169 -2.5772047e-06 0.009728877 -0.035909563 0.14001752
0.04683367 0.022084218 0.2162029 0.14983225 0.008893523 -0.07827814 -0.067061864 -0.009178873
-0.07709748 -0.15716211 -0.30427346 -0.120562084 0.089517854 -0.26677522 0.15732838 -0.255094
0.07872569 0.054619137 0.0333183 0.14618061 -0.038028337 0.02061014 -0.22222075 0.18776907
-0.15653372 -0.11561297 -0.38759527 -0.23579219 -0.058409084 0.07719851 0.155118 0.08814506
0.13564076 -0.08854936 0.16306365 0.22244197 0.084341496 0.22403093 0.273905 0.33495808
-0.13450615 0.25967813 0.18213089 -0.003977694 0.110272005 0.24777263 0.08143367 0.13227697
0.15512498 0.07874761 0.14537883 -0.041279506 0.05459579 0.18450847 -0.040285084 -0.18105891
0.03490161 -0.18031344 0.13441694 -0.24957992 -0.31098184 0.1114698 0.016119462 0.26907438
0.32302564 0.088657156 -0.088748656 -0.11581801 -0.29127768 -0.028685233 0.03634671 -0.06076665
-0.092223816 -0.21795663 -0.06556772 0.105627626 -0.06839526 0.055794593 -0.041798804 -0.10005653
-0.18131158 -0.15304112 0.14309376 -0.15127806 0.05085924 -0.15643065 -0.08479148 0.064040594
-0.22674464 -0.055598497 -0.13669853 -0.027414365 -0.16496098 0.15172912 0.16736224 -0.028894681
-0.32310548 -0.013435491 0.24938339 0.11063914 0.27717644 -0.077771954 0.05834615 0.11603503
0.26439142 -0.073560104 -0.051298346 -0.18655503 -0.036076035 0.1584027 -0.019223057 0.052996714
0.029511986 -0.05002961 -0.1356632 -0.06368828 -0.21149428 -0.03785316 0.2712318 -0.1976538
-0.03335898 0.034702186 -0.036313828 -0.022539346 0.1944399 -0.019558348 0.08924028 0.15195814
0.16592082 -0.017270397 -0.13905811 -0.13276377 -0.43548125 -0.080335565 -0.110758744 -0.04701147
-0.28625584 0.13121673 0.106637724 -0.121001385 -0.16375083 0.07082071 0.064366 -0.017867152
-0.07305681 0.35092574 -0.13356589 0.12244627 0.1690446 -0.037270688 0.34363526 -0.019368915
-0.09504156 -0.07750239 -0.112446606 -0.24495636 -0.028692726 -0.058917843 0.16753268 -0.18694486
-0.022063004 -0.14608106 0.21329884 0.0995649 -0.1348104 0.10397176 0.2931488 -0.05765539
0.24126045 0.061779276 -0.18849587 0.19113463 -0.3550642 -0.055807833 -0.48664007 -0.24559969
-0.2901069 -0.08621699 0.037101407 -0.15729526 0.24486916 0.31775802 0.33963606 0.052574743
0.22752687 -0.1304972 0.044535637 0.07448135 0.07145155 0.046665635 -0.19853684 0.07841278
-0.12278147 -0.14936249 0.111907616 0.0460639 -0.16988704 0.0060966006 0.19370015 -0.023866592

network_body._body_endoder.seq_layers.0.bias f4 [128]
00000000: 7529 ba3c 414c 1cbd 1a0d 253d 0bcc f73c
00000010: 1d81 093d 8d44 15bd 23e1 f63c ab06 053d
00000020: b58e d93d 45a7 973c 3d04 243b 0ad4 093d
00000030: eead ec3c 1ef4 f33c aca8 d13c 5f30 bcbc
00000040: b32e c13c 83a6 333d 8196 7c3b aa1c 523d
00000050: ebc5 4a3d e31c 883d 6a83 473d 8be8 de3c
00000060: e51f 193d 69de 8e3d 810d 063d 478f 6a3c
00000070: b464 0c3d eaee f5bc 7bed cf3c 64e5 bc3c
00000080: a9d3 363d d21d 833d 957e 613c 7835 883c
00000090: bc86 b83c 9849 eb3b a3c6 ac3c 6f8d 0b3c
000000a0: 804e e43c d64b 9c3b ed6c fbba e8f7 1a3b
000000b0: 57b5 d43c e1b9 263c f2e4 0c3d cdd2 393c
000000c0: 56a8 29bc 3a05 493d 5395 8f3d 1f1b 873c
000000d0: 0a65 fa3c 8f43 643d f856 d0bb 92bd 273c
000000e0: 9100 623d 6941 7d3c 92e5 8a3d 18e1 943c
000000f0: db98 ef3b 9331 033d 5caa babc 2e81 0d3d
00000100: 32fb cd3b 5f44 443c 3a78 be3b 11a8 033c
00000110: ed10 b5bc de33 e2bd 5d05 023d 8c12 0e3d
00000120: 7fef bc3c 4266 ab3d 6f0f 6b3c 0b43 883c
00000130: 39c9 753c 47f5 9b3d 4b72 09bd 9f35 9ebc
00000140: 9060 373d bc3c 893d bc4b 39bb 46c7 163d
00000150: 2662 003d 6c58 723c cee2 da3c d4ad d23c
00000160: 3508 adbb 8708 193c da10 f43c 8afc b53c
00000170: 809b f3ba ea94 2c3d 11c6 e03c ee6d 04ba
00000180: aa1a f43c 024c 223d dc85 5d3b b45c 7f3d
00000190: 483a 0d3d a521 353d 7070 923c 644c bd3c
000001a0: a703 9b3c eac6 583c 55e1 393b ceed 0d3d
000001b0: 7eb3 b2bb b452 0ebd 83cf 8f3c c34d 963c
000001c0: 1798 513d 3bf9 393d 8c46 1e3d 8092 0b3d
000001d0: c3f7 2c3d 3b14 c7bc 99e3 613d e1f3 273b
000001e0: 52c4 44bc 22b3 973c 6d8a bdbd ff92 c73c
000001f0: 548e 333d 221c ecbc 6dc6 0f3d 3756 053d
0.022724846 -0.03815866 0.040295698 0.030248662 0.033570398 -0.03644233 0.03013665 0.032477062
0.10622922 0.018512378 0.002502694 0.03364948 0.02889153 0.02977949 0.025593124 -0.022972284
0.023581838 0.04385997 0.0038541856 0.051296867 0.049505156 0.06646135 0.04870931 0.027210495
0.037383933 0.06976015 0.032727722 0.014316387 0.034275725 -0.03002115 0.025381794 0.0230586
0.04463545 0.06402172 0.01376309 0.016627058 0.022525184 0.007180404 0.021090811 0.008517607
0.027869463 0.0047697825 -0.0019182243 0.0023646299 0.025965376 0.010176153 0.034398027 0.011341763
-0.010355076 0.04907725 0.07010903 0.016492425 0.030565757 0.05572849 -0.0063580237 0.010238068
0.05517632 0.0154574895 0.06782068 0.01817374 0.007311923 0.0320297 -0.022786312 0.034547023
0.0062860483 0.011979192 0.005812672 0.008035676 -0.022102797 -0.11045049 0.031743396 0.034685656
0.02306342 0.083691135 0.014346941 0.016633531 0.0150015885 0.07615142 -0.033556264 -0.019312678
0.044769824 0.06701037 -0.00282739 0.036811136 0.0313436 0.014791589 0.026719477 0.025717653
-0.0052805194 0.009340412 0.029793192 0.022215147 -0.0018585771 0.042134203 0.027438195 -0.0005051781
0.02979787 0.039623268 0.003380171 0.062344268 0.03447941 0.04422154 0.01787588 0.023107715
0.01892264 0.013231019 0.0028363068 0.034650616 -0.005453526 -0.03474684 0.017555004 0.018347627
0.051170435 0.0454037 0.038641497 0.03407526 0.04222847 -0.024301639 0.055148695 0.002562754
-0.012009697 0.018518034 -0.09254918 0.024362085 0.043836907 -0.028822009 0.035101343 0.032552924

network_body._body_endoder.seq_layers.2.weight f4 [128, 128]
00000000: 60fe febd 01f9 c1bd 9a5c c23d 6b6c ddbd
00000010: 4184 05bd 5717 0b3a f629 7dbd 0499 b43b
00000020: 6854 d2bc c835 4bbe f028 043e 9b53 b73c
00000030: 3e91 173e 2520 0d3e f1f2 9ebc 6f07 083d
00000040: 61a1 0abe bc3e 543e 3a2d 20be 70d3 a23d
00000050: 417d 82bd b203 8b3d 66f1 3d3c 3f79 40be
00000060: 1e0e f33c dcc5 bbbc 7fa8 a1bc 1288 ec3d
00000070: 224b 1d3e d99f c7bd 185d 24be 714d b23c
00000080: 9ac6 2a3e 3a80 3f3e f6b6 65bd 2cda 2a3e
00000090: 1679 8f3d e2a7 34bd 9d39 d239 b2ba 0c3e
000000a0: 747b 58bd b47c cc3d dca6 62bd 1e82 923d
000000b0: bdd8 babd 4d92 0ebd 0d38 4d3c 6d09 203d
000000c0: 35d5 013d 49a7 3fbd aa5e 913d 8b8f f6bd
000000d0: d07d 24bc 8032 333e 300b babc 1829 763d
000000e0: 2a5a 76bd e6d4 2bbb 58af bf3b 6b30 3fbd
000000f0: ba3d 52bd 1aea 9c3d 0eec eebd 7d35 4dbd
00000100: eb16 d73c 5aba 973d ef61 cd3d 66d7 5f3d
00000110: bd3d e7bd fa78 febd 36bc 85bd adf5 f7bd
00000120: b7b4 403e 49bd 3d3e d4ee acbd 2dca dc3d
00000130: 5f8f 4ebe 2907 943b 345f b9bd c844 b1bd
00000140: b7bf c73b 191c d13d 6f29 853b fdea 013d
00000150: d42b dbbd 7ac0 863d e02b 6fbd be58 0ebd
00000160: ed5a 503b 6af0 1f3e f23c fd3d 71dc 8e3e
00000170: 2a14 243d 2ce2 373e 21ec dabd 5113 373e
00000180: e620 27bc 4839 cbbc 4bb1 2e3e 1d72 083e
00000190: e546 eabd 2d42 703d 21e8 3cbc cf2e f5bd
000001a0: 75a7 193e 43e5 a83c 559e ba3d 1193 04bd
000001b0: efb3 10bd 003d aebd 8c2b 4fbe 57c6 db3d
000001c0: 2c05 40bd c1ae d3bd e7d3 823d 76cd c63d
000001d0: 968d c5bd 75ea 963d feef f73d 9890 f4bc
000001e0: 4e5b 793d 9dc2 913d 33b7 103e 20ee 3f3e
000001f0: a7f7 68be eccf fdbd a1fb 89be e1d5 df3d
00000200: a57b c3bd 370c dbbd afb3 95bc 3657 71be
00000210: a9ff 4f3d 3f23 8b3d 8242 2c3d 76d8 963c
00000220: 2118 523c 6b30 d73d 534c d2bd ffab 113e
00000230: 7304 403e 293f 5bbe 87f2 bfbe 8192 e6bc
00000240: 8737 2abd d73f 16be aaa5 96bd 7fa7 c63d
00000250: b8ca 623d fb98 733e 152b f23d 3259 15be
00000260: 1090 c0bb 39e7 223e 8aa9 62be 6226 05be
00000270: 90df c33d 9e30 6abd db49 56bd e3b3 38bd
00000280: a562 623d cf24 193e 67ed 473e 0f73 143e
00000290: b24c b0bd 5844 dabd 48c2 233e 3d6b 233e
000002a0: d155 00be 63a0 043d bb88 1ebd 1654 11be
000002b0: 39d3 8e3d 2f24 debd f1ef f8bb 922d 03be
000002c0: 3b5b c4bd a428 583d 4198 cc3d 6a50 9a3d
000002d0: 1873 773d 889b 983e 8364 2abc a62e 873d
000002e0: 63c8 b43d a214 d53d 807b d93d c6d7 163e
000002f0: 857f 90bc 1cef 303d 1f56 fcbd 1a6f 973d
00000300: 418d 183e 6e1c 603e 6b0a a63e 066f 96bc
00000310: c76f ca3d d439 85be d485 463e f7d7 05be
00000320: 3f48 463d 47f3 2a3e 27dd 16be 70a5 be3d
00000330: 667d 913c d0d7 303c a416 8f3d f5bc 4b3c
00000340: 5397 7a3d 87d7 26bd d606 e93d 2077 c1bd
00000350: 7368 edbd fbc4 b73d 97b7 a7bd a412 1bbe
00000360: 6f17 403e bd79 f9bd 8803 c03d 73bd 633d
00000370: 5a0f 363d d41c 2c3d ae50 133e 7525 bfbd
00000380: 3ea6 87be cdb5 acbd 538c cf3c 8c48 a43c
00000390: 3893 06bd 082b 893d d26c d33d 4bce 30bd
000003a0: 9962 a63d 37a1 01be cf42 bebd 0761 5a3d
000003b0: ec43 2abd b751 afbd f576 0cbd 96f9 993d
000003c0: 051d 88be 7e68 753c 832d 803d 70ec 743c
000003d0: 9ab3 97bd a8db 173e 63be 35be a285 413d
000003e0: 482d 673d 71dd f5bd 261e f0bd 6803 c23b
000003f0: f931 33be 1695 d3bd b52e 83bd dbdb 0fbe
-0.12450862 -0.09471322 0.094903186 -0.10811695 -0.03259683 0.0005305907 -0.061807595 0.005511405
-0.025675014 -0.19844735 0.12906241 0.022378733 0.14801499 0.13781793 -0.019402953 0.033210214
-0.13538124 0.20727056 -0.15642253 0.07950485 -0.063715465 0.06787814 0.011593198 -0.18796252
0.029669818 -0.022921495 -0.019733666 0.11549391 0.15360692 -0.097472854 -0.16051137 0.021765443
0.16677323 0.18701258 -0.05608269 0.16684788 0.07005517 -0.044105418 0.00040097247 0.13743094
-0.05285211 0.09984723 -0.05533491 0.07153724 -0.09123371 -0.034807492 0.012525571 0.03907149
0.03169747 -0.046790395 0.07098134 -0.120390974 -0.010039762 0.17499733 -0.022710413 0.060097784
-0.06014458 -0.0026219427 0.00584976 -0.046677034 -0.0513284 0.07661839 -0.116661176 -0.05009984
0.026256045 0.074085906 0.10028445 0.05464878 -0.112910725 -0.12425418 -0.06530039 -0.12107406
0.18818937 0.18529238 -0.0844399 0.107807495 -0.20171879 0.004517455 -0.09051362 -0.08655697
0.0060958522 0.10210437 0.004063777 0.031718243 -0.10701719 0.06579681 -0.05839145 -0.0347526
0.0031792477 0.15619054 0.1236514 0.27902558 0.040058292 0.17957371 -0.10689569 0.17878462
-0.010200715 -0.024807587 0.1705982 0.13324781 -0.11439303 0.05865686 -0.011529953 -0.11971819
0.15005286 0.020617133 0.09112231 -0.032366816 -0.035327848 -0.085077286 -0.20231456 0.1073119
-0.046879932 -0.10336066 0.063880734 0.09707157 -0.09646146 0.07368938 0.12106322 -0.029854104
0.06087809 0.07117198 0.14132385 0.18743181 -0.22750722 -0.123931736 -0.2694979 0.10929466
-0.09545068 -0.10695689 -0.018274156 -0.23568425 0.050780926 0.06793832 0.042055614 0.018413763
0.012823136 0.10507282 -0.10268464 0.14225768 0.18751697 -0.21410812 -0.3748972 -0.02814603
-0.04155686 -0.1467279 -0.07355817 0.09699916 0.05536911 0.23788826 0.118246235 -0.14584807
-0.0058765486 0.15908517 -0.22134987 -0.13002923 0.095641255 -0.05717527 -0.052316528 -0.04509343
0.055269856 0.14955448 0.19524156 0.14497016 -0.086083785 -0.10657567 0.15992081 0.15958877
-0.12532736 0.03237952 -0.038704615 -0.14192232 0.06973881 -0.10846745 -0.0075969626 -0.12810352
-0.09587713 0.052773133 0.09989978 0.07534869 0.060412496 0.2980616 -0.01039994 0.06600694
0.08827283 0.10404326 0.10619259 0.14730749 -0.017638931 0.043196782 -0.12321114 0.07394238
0.14897634 0.21885845 0.32429823 -0.018363487 0.09884601 -0.26020682 0.19386989 -0.13070665
0.048408743 0.16694365 -0.147328 0.093088984 0.01775999 0.010793641 0.0698674 0.012435188
0.06117947 -0.040732887 0.11378257 -0.094465494 -0.11592188 0.08973118 -0.08189314 -0.1514383
0.18758939 -0.12181423 0.093756735 0.055600595 0.044448234 0.04201968 0.14386246 -0.09333316
-0.2649402 -0.08433113 0.025335466 0.020054124 -0.032855242 0.06697661 0.1032349 -0.043165486
0.08124275 -0.12659155 -0.092900865 0.05331519 -0.04156868 -0.08560508 -0.034293134 0.07518308
-0.2658464 0.014978526 0.06258681 0.014948949 -0.07407303 0.14829886 -0.17748408 0.047246583
0.056439668 -0.12005127 -0.117245 0.005920816 -0.17499532 -0.1033117 -0.06405393 -0.14048712

network_body._body_endoder.seq_layers.2.bias f4 [128]
00000000: fc23 b73c ba85 173d 057d d33c 7f08 673d
00000010: 7402 403d d8fc f43b 4dc6 463d 4e82 eb3c
00000020: edf5 2b3d 118c 873c 8806 d43c 1edc e93c
00000030: e384 583d d2d3 d93c 050e 453d 7e45 f73c
00000040: 8665 32bb 0d81 363d 926e b23c 2ffd 073d
00000050: a9b8 223c 36ea fb3c 2d24 f13c 35cd 0e3d
00000060: fe45 093d 6209 123d 2bcb f53c d5a9 f03c
00000070: c61e 403d 5098 083d 5281 fd3c 9746 083d
00000080: 9a7d 883b 4cc2 d23c d517 0c3d 312c 6e3d
00000090: 41c4 b73c 6fa7 e33c edbc 0f3d e6d7 5d3d
000000a0: 6735 283d f3da 823d 980e 4a3d bfe6 e33c
000000b0: 0825 073d b2cf 003d 257e ec3c b379 113d
000000c0: b4bc ba3c 3c26 fa3c b7e8 363d 24c1 e93c
000000d0: f49e 3e3c 7940 eb3c ddb4 be3c fc33 863c
000000e0: bec5 eb3c 1f94 1b3b 4491 dd3c f10c be3c
000000f0: 55dc af3c 9af6 823c eb3e c33c 2312 103d
00000100: 4335 233c be1e e73b 30d1 063d 6364 f83c
00000110: 70c1 c93c d37d e63c 3d4a 843c 220d 3e3d
00000120: cfa4 353d 66bc 8d3c 7d18 ec3c e18b 033d
00000130: d513 f83c eea6 b33c e1a6 6b3d 57f5 b53c
00000140: 7c91 123d 0384 e63c 9123 913c e8c3 f93c
00000150: b76b 5e3d 8103 d83c 473d 733c f5f3 f73b
00000160: 83ab 113d cf28 473d ed89 eb3c 3bf9 053d
00000170: 4542 3d3d a71e 453d a259 983c 44fa ea3c
00000180: ee34 df3c ddcf dc3c 64ea 843c cad2 4dbb
00000190: 99d6 c43c 6f2e 0dbc bafc 0b3b 199f 133d
000001a0: fda9 483c 0379 0e3d 7a19 1a3d 1088 213d
000001b0: 81fa 003d 17a8 483d 5986 573d d08d 1bbc
000001c0: 0ee5 d13c ee39 613d 5cb1 e73c 427a 463d
000001d0: fdae ce3c 9718 e93c d02d f23c c7f7 203d
000001e0: 4f37 ce3c 4e35 293c a446 fa3c f9e9 233d
000001f0: 5c3c 6e3d 5c6e 37ba afb4 a83c 52be 243d
0.022356026 0.036992766 0.02581645 0.056404587 0.04687734 0.0074764304 0.048528958 0.028748658
0.04198258 0.016546281 0.02588202 0.028547343 0.052861106 0.026590262 0.048109073 0.030184504
-0.0027221157 0.044556666 0.02178124 0.03320044 0.009931722 0.030751329 0.029436195 0.03486367
0.033514015 0.03565348 0.030004105 0.029377857 0.046904348 0.03334838 0.030945454 0.033270445
0.0041653635 0.025727414 0.034202415 0.058147613 0.022432448 0.0277898 0.035092283 0.054160975
0.041066553 0.063894175 0.049330324 0.02781999 0.0329943 0.031448074 0.028868744 0.035516452
0.022795059 0.03053581 0.044655528 0.02853448 0.011634577 0.028717266 0.023279602 0.01638221
0.028780814 0.002373941 0.027046807 0.02319953 0.021467367 0.01598673 0.023833713 0.035173547
0.009961429 0.0070532253 0.03291434 0.030321306 0.024628371 0.02813617 0.01614868 0.046399243
0.044346627 0.01730175 0.02882027 0.03211582 0.030282894 0.021930184 0.057532195 0.022211714
0.035783276 0.02813912 0.017717155 0.030488923 0.054301944 0.026368858 0.014846153 0.0075669237
0.035563957 0.048622902 0.028752292 0.032708388 0.046205778 0.048124935 0.018597428 0.02868379
0.027246919 0.026954586 0.016225047 -0.0031406158 0.02402811 -0.008617028 0.0021360354 0.0360404
0.01224756 0.034783375 0.037621953 0.0394364 0.0314889 0.048988428 0.05261836 -0.00949426
0.025621917 0.054986887 0.028282814 0.048456438 0.025229925 0.028454108 0.02956286 0.0392988
0.025172858 0.01032765 0.030551262 0.040018056 0.058163032 -0.0006997341 0.02059397 0.040220566

action_model._discrete_distribution.branches.0.weight f4 [4, 128]
00000000: a90a b8bd 274a d5bd 5742 7b3d 9197 a3bd
00000010: 525e 87bd bd37 743d 3225 b4bd 1600 8abd
00000020: 4ee6 8dbd f989 a7bd f1ab 98bd 12a5 c4bd
00000030: 72c5 a8bd 119a ab3d 1173 11bd b12f c2bd
00000040: c85f a9bc 0c25 c3bd a592 593d 0259 9d3d
00000050: a3bc e0bc 0b9f e03c 2293 d8bd 4418 973d
00000060: 22a7 b8bc cf91 a7bd 4112 a63d bef6 8a3d
00000070: c5b4 06bd 83c9 863d 0987 a1bd 97b8 8d3d
00000080: 1b65 3abd 4ce3 99bd c230 6e3d be2f f7bb
00000090: 34db a63d 4efa 723d fc05 82bd 6e25 763d
000000a0: 568d 8ebd 3c00 5cbd 0ef7 7b3c 2dda 5c3d
000000b0: 1072 58bd 52f2 863d 4380 653d c47d a33d
000000c0: a58d 673d 04ff 3f3d ccc0 453d b74b 7ebd
000000d0: fcb9 71bd 160f 8a3d 1ba4 60bd dd3b 31bd
000000e0: 81a9 483d 907b 19bd 7490 863d 6466 90bd
000000f0: 5037 24bd 800b 7a3d 9b62 0a3d 09c3 b8bd
00000100: 2888 ff3c c76c 3cbd 064a 873d 5cbb 4f3d
00000110: 9d38 053d 40d9 313d 452f 65bd e81f babd
00000120: 99f9 543d 657f 9a3d 57f4 ae3d 8757 8b3d
00000130: f887 a33d c4a8 5bbd 8fd1 12bd b8f1 2abc
00000140: d0c3 2b3c 73e7 5b3d 703a 89bd f736 013d
00000150: 342b a7bd b2cb da3d ed53 e33d 10cc 5fbd
00000160: 1d5b 47bd 2125 403d 1c7f 713d cbc6 913d
00000170: ec6d f53c 02ad 523d 3b80 a83d 43ef 8b3d
00000180: a35d 933d 2d76 943d 5260 6dbd d9e8 edbc
00000190: 562b 34bd 1e38 8ebc 61a2 f8bc e8ca a73d
000001a0: 6e80 7a3d ea6a 0f3d 5483 a5bd 1042 a6bd
000001b0: 7002 6bbd be9d a4bd b615 e7bd c999 49bd
000001c0: e918 303d 6b0f 51bd 0844 803d a30a 5abc
000001d0: ca90 873d f2d8 5f3d 4c9c 92bd c9cc 87bd
000001e0: fd89 833d 9e32 a23c a9a7 8f3d 8fbe b43d
000001f0: 0d93 5f3d 7fc6 eebc 2927 303d d292 6bbd
00000200: 389a 513d 8d69 3d3d 0591 36bd 984a 0b3d
00000210: d819 083d 316b 10bd e683 3a3d 9f30 1f3d
00000220: d1fc 1d3d 0c0a 2b3d bfd5 733d 6a21 5a3d
00000230: 1e27 f53c a296 82bd ab10 da3c 6fa2 423d
00000240: 0f13 333d 0c78 103d 849e 22bd 3170 1dbd
00000250: f887 043d 8335 32bd fbd7 583d 469b 6ebd
00000260: 0885 01bd 23d5 033d 7772 3cbd ec12 5dbd
00000270: 2bde 623c 6b61 81bd dc1a 073d f556 07bd
00000280: e995 1d3d f5a6 703d a522 7fbd cc85 c6bb
00000290: 6467 39bd fc18 23bd fdd3 f93c faef 1ebd
000002a0: 53b1 013d f3e6 b33c 2113 22bd c382 0abd
000002b0: 57f3 1a3d 5298 28bd 9e2e 60bd 00a4 27bd
000002c0: b76f 17bd b134 0abd 7645 39bd 878c 723d
000002d0: f6d3 353d 209f 4cbd a24a 003d c0fd 353d
000002e0: a24a 3cbd b726 113d 6bb5 50bd 4ba0 3c3d
000002f0: adef f53c 072e 1fbd c9e7 4dbd 1a0e 2e3d
00000300: 07ff c9bb 0195 0f3d 2c28 70bd 6dd2 4abd
00000310: c991 f8bc 7755 14bd 3c70 273d 1a87 e83c
00000320: dcd3 5dbd abd0 19bd 95a8 74bd 28a5 85bd
00000330: b4de 3ebd 7426 643d b330 8d3c d51b 0e3d
00000340: 2e9b 47bd f680 3dbd e9e1 3e3d 0ac9 0bbd
00000350: af7f 033d 4103 eebb da38 95bc 1da5 473d
00000360: 253c 483d a7c4 33bd d48e 31bd 5277 31bd
00000370: 010a 01bd 5d56 38bd 9177 82bd 5b3d 84bd
00000380: e3bf 69bd 07aa 3bbd 8f2a 153d b18d 063d
00000390: ab1d 503d 2f23 133d 8c2c 433d 4dd4 2abd
000003a0: b622 0fbd ee90 43bd 4ea7 543d 0aeb 163d
000003b0: 403e 2f3d bdb1 f33c 78ab 7a3d 46dc e03c
000003c0: df52 45bd 1665 0f3d d16b 45bd f785 2bbd
000003d0: aeaf 46bd 87a2 50bd dbaa 0c3d b6df 123d
000003e0: ce76 29bd 0b3d b5bc 6749 32bd 0dae 4ebd
000003f0: 18f0 11bd 4f9d 383d 6a2b 28bd 9bac af3c
-0.08986408 -0.10414534 0.061342563 -0.079878934 -0.06609787 0.05962347 -0.08796157 -0.06738298
-0.06928693 -0.08180613 -0.0745467 -0.09601797 -0.08240785 0.08378995 -0.035510127 -0.09481753
-0.020675555 -0.095285505 0.053118367 0.076829925 -0.027433699 0.027419588 -0.10574938 0.07377675
-0.022540633 -0.08182108 0.081089504 0.067853436 -0.03288724 0.06581404 -0.07887084 0.06919973
-0.045506578 -0.075140566 0.058151968 -0.007543533 0.081472784 0.05932074 -0.06348798 0.06009429
-0.069605514 -0.05371116 0.015378727 0.053919006 -0.052843153 0.06589188 0.056030523 0.07982972
0.056531567 0.04687406 0.04827957 -0.062083926 -0.05901526 0.06741159 -0.054844003 -0.04326998
0.048989777 -0.037471354 0.06570521 -0.070507795 -0.040091813 0.061046124 0.033785444 -0.09021575
0.031192854 -0.046002176 0.06605916 0.05071579 0.032524694 0.043420076 -0.055953283 -0.09088117
0.051995847 0.0754383 0.08542698 0.06803804 0.07984918 -0.053627744 -0.035844382 -0.010433607
0.010483697 0.053687524 -0.06700599 0.03154656 -0.08162537 0.10683383 0.11099992 -0.05463797
-0.048670877 0.04691041 0.05895911 0.07117995 0.029959641 0.051434524 0.08227583 0.06832745
0.07195594 0.07249103 -0.057953186 -0.029041694 -0.04398664 -0.017360743 -0.030350866 0.08192998
0.061157636 0.03501407 -0.080816895 -0.08118069 -0.05737537 -0.080378994 -0.11283438 -0.049218927
0.042992506 -0.051040094 0.06262976 -0.0133082 0.06619413 0.054650255 -0.071587175 -0.066308565
0.064228036 0.019799527 0.070144005 0.08825409 0.054583598 -0.029147385 0.043006096 -0.057513066
0.051172465 0.04624324 -0.044571895 0.034006685 0.03322777 -0.035258476 0.045535944 0.038864728
0.038571183 0.04175763 0.059530016 0.053254522 0.02992588 -0.06376387 0.026619276 0.04751819
0.043719348 0.035270736 -0.039701954 -0.038437072 0.032356232 -0.043508064 0.05294035 -0.05825355
-0.03162101 0.032185685 -0.0460076 -0.053973123 0.013846914 -0.06317409 0.0329846 -0.033041913
0.038473044 0.058752973 -0.0622889 -0.0060584303 -0.045264617 -0.03981875 0.030496592 -0.03880308
0.03166325 0.021960711 -0.039569024 -0.03381611 0.037829723 -0.04116089 -0.054731958 -0.040927887
-0.036971774 -0.033741657 -0.04523226 0.05921605 0.044391595 -0.04995644 0.031321175 0.044431448
-0.045969613 0.035437312 -0.050954264 0.046051305 0.030021513 -0.038862254 -0.050269876 0.042493917
-0.006164435 0.03505421 -0.05863206 -0.049517084 -0.030342953 -0.036214318 0.04087852 0.028384734
-0.054157123 -0.037552517 -0.059731085 -0.06525642 -0.046599105 0.055700734 0.017235136 0.03469451
-0.048731975 -0.046265565 0.046602163 -0.034127273 0.03210419 -0.0072635715 -0.018215586 0.04874145
0.048885483 -0.043888714 -0.043349102 -0.043326683 -0.03150368 -0.045004237 -0.06370462 -0.06457015
-0.057067763 -0.045816448 0.03641754 0.03284997 0.050809544 0.035922226 0.047649905 -0.041706372
-0.034945212 -0.047745638 0.051917367 0.036845244 0.042783976 0.029747838 0.06119868 0.027448785
-0.048174735 0.035008512 -0.048198525 -0.041875806 -0.048507385 -0.05093625 0.034342628 0.03585788
-0.041373067 -0.022123834 -0.043527033 -0.050458957 -0.035629362 0.045071896 -0.041057028 0.02144461

action_model._discrete_distribution.branches.0.bias f4 [4]
00000000: e577 253c 69d6 9cbc 6034 153c 3461 b33c
0.010099386 -0.019145207 0.009106725 0.021896936
